actor_1_checkpoint.pth (torch_old, 159294 bytes, 6 tensors)

fc1.weight f4 [256, 24]
-0.13482386 -0.26976043 0.11756084 0.06678286 -0.030027186 0.1660501 -0.0788717 0.28181493
-0.11485426 -0.10328424 0.12302899 0.18357927 -0.114124365 -0.1503261 0.039629973 0.28328142
-0.01302993 0.20516986 -0.014306411 0.014411199 -0.18571481 -0.25914353 0.011285035 -0.01916162
-0.10449093 0.061128464 -0.15206423 -0.15006003 -0.14266652 -0.49140522 0.05265802 0.15204516
-0.07434821 0.030623471 -0.044192985 -0.28451556 -0.13418458 -0.19086334 -0.07266958 0.0075386437
-0.18698013 -0.1274718 -0.1523199 0.05969294 -0.19596373 -0.6370513 0.08413767 -0.20113197
0.11781002 0.11753429 -0.037839852 0.32196817 0.055743113 0.15540229 -0.14700496 0.113006584
-0.11161131 0.13901384 0.05472467 0.24552427 0.020203508 0.012335137 0.040452193 0.25838995
0.17223524 0.45132318 -0.10575064 -0.012795459 0.29506853 0.13160208 -0.136173 -0.0698517
0.19439276 4.448731e-05 -0.13057743 0.22101793 -0.14107716 0.12731087 -0.013110766 -0.13379362
-0.14483263 -0.1274474 -0.030714164 -0.028002668 -0.24723254 0.11384116 0.18655126 -0.16231869
0.029548854 -0.26610875 0.039306063 0.008209331 -0.38554725 0.15329921 0.12041809 -0.18209797
0.038073577 -0.117153846 0.083345406 0.19707264 0.019441359 -0.19516265 -0.024147443 0.03939681
-0.094094224 -0.06316387 -0.14528252 0.3367968 0.15077044 0.0766404 0.1008268 0.16748747
0.15448363 0.19169164 0.020806696 -0.052795466 -0.19327174 0.5210381 -0.0005530106 0.0029176972
-0.047572527 0.10124231 -0.12437467 0.017439166 0.13225254 0.16813771 0.07025169 -0.15341875
-0.14394237 -0.12244282 0.0937731 0.064591296 0.2510003 0.26677352 -0.12671454 0.20623587
-0.010171254 -0.075457506 -0.104016 0.035682216 0.45951498 0.024691146 0.07414565 -0.041787364
-0.119300105 0.20396398 0.04843555 0.17891213 0.092083976 0.041223895 -0.16701625 0.075138174
-0.077505745 0.10295688 -0.14914314 0.2674468 0.22249441 -0.23743823 0.12628801 -0.07578502
-0.088868156 0.18870811 -0.041377723 -0.047866613 0.00613377 -0.010856895 -0.10092984 0.06850442
0.01457469 0.053155616 -0.03604373 -0.022609936 -0.363159 0.09021611 0.19616069 0.029698044
0.03289274 -0.043669336 0.13015871 -0.06932407 -0.14883617 -0.1661278 -0.112279564 -0.1276478
-0.05786058 0.08970769 0.082945056 -0.116105266 0.07081257 0.057562087 0.06909834 0.020188874
-0.15727974 0.040428218 -0.21541895 -0.05795668 0.14018525 0.1496128 -0.21721596 -0.112727664
-0.20743148 0.10782802 0.009592619 -0.19267368 -0.07991918 -0.026888324 -0.10084211 0.104224734
0.043551523 -0.042492077 -0.17035936 -0.2159814 -0.20647573 0.20880005 -0.20695052 -0.041320436
-0.08926122 0.03317936 0.022536421 -0.40180573 -0.08099694 0.16415286 0.10227309 -0.10360633
0.06799772 0.12436895 0.13562304 -0.26223972 0.21152233 0.013927434 0.09673242 -0.011480501
0.10823892 -0.022576874 0.16564177 -0.2578872 0.083303265 0.06672785 -0.17497878 -0.3590937
-0.12490723 -0.2766178 0.01695821 0.13237663 0.06730017 -0.12551537 0.2281405 -0.0059991335
0.18159789 -0.19594513 0.112274446 -0.013228158 -0.17037337 -0.21075785 -0.10512964 -0.072601855
00000000: 440f 0abe 0a1e 8abe bdc3 f03d 74c5 883d
00000010: 93fb f5bc 0a09 2a3e 7c87 a1bd 0c4a 903e
00000020: b638 ebbd b086 d3bd a0f6 fb3d 34fc 3b3e
00000030: 09ba e9bd 16ef 19be 0a53 223d 430a 913e
00000040: 7d7b 55bc 0c18 523e 7065 6abc f31c 6c3c
00000050: 062c 3ebe 76ae 84be dee4 383c d4f8 9cbc
00000060: 57ff d5bd d761 7a3d bab6 1bbe 56a9 19be
00000070: 2c17 12be 7799 fbbe f0af 573d bab1 1b3e
00000080: e043 98bd 13de fa3c b403 35bd 06ac 91be
00000090: af67 09be ae71 43be cad3 94bd ba06 f73b
000000a0: b877 3fbe f887 02be bff9 1bbe 9680 743d
000000b0: b7aa 48be cb15 23bf 5f50 ac3d 8af5 4dbe
000000c0: 6146 f13d d1b5 f03d f6fd 1abd 03d9 a43e
000000d0: e452 643d c721 1f3e 7888 16be ff6f e73d
000000e0: 7894 e4bd a559 0e3e fa26 603d b76a 7b3e
000000f0: d481 a53c 5119 4a3c 33b1 253d b04b 843e
00000100: 6f5e 303e d513 e73e cb93 d8bd 0ba4 51bc
00000110: 3913 973e b2c2 063e ef70 0bbe 680e 8fbd
00000120: e50e 473e e397 3a38 17b6 05be 8652 623e
00000130: 8876 10be c85d 023e 8ace 56bc 3201 09be
00000140: 014f 14be 9281 02be 459c fbbc da65 e5bc
00000150: 872a 7dbe 8e25 e93d 4b07 3f3e df36 26be
00000160: 7010 f23c 683f 88be 65ff 203d 6e80 063c
00000170: 7366 c5be 78fa 1c3e c29d f63d e477 3abe
00000180: 0af3 1b3d 5bee efbd ffb0 aa3d 69cd 493e
00000190: 7c43 9f3c b8d8 47be dcd0 c5bc 8d5e 213d
000001a0: 79b4 c0bd 0f5c 81bd f1c4 14be a170 ac3e
000001b0: 9163 1a3e a4f5 9c3d 487e ce3d d681 2b3e
000001c0: f530 1e3e d04a 443e ce72 aa3c 0f40 58bd
000001d0: 07e9 45be c162 053f eaf7 10ba d636 3f3b
000001e0: 69db 42bd 2158 cf3d 26b8 febd 95dc 8e3c
000001f0: 366d 073e 4b2c 2c3e 1ee0 8f3d ce19 1dbe
00000200: a165 13be 4dc3 fabd 1c0c c03d 7148 843d
00000210: 1c83 803e 8a96 883e 75c1 01be 7f2f 533e
00000220: 55a5 26bc 7789 9abd 5706 d5bd 8427 123d
00000230: 8c45 eb3e 1645 ca3c add9 973d 3a29 2bbd
00000240: 9d53 f4bd efdb 503e 5b64 463d be34 373e
00000250: 8696 bc3d 63da 283d 4f06 2bbe 0be2 993d
00000260: 55bb 9ebd 0fdb d23d fbb8 18be c9ee 883e
00000270: 93d5 633e 0223 73be a551 013e 2d35 9bbd
00000280: 8200 b6bd b33c 413e b07b 29bd c80f 44bd
00000290: cbfd c83b 1ee1 31bc 4eb4 cebd 0c4c 8c3d
000002a0: aeca 6e3c b4b9 593d 97a2 13bd 7938 b9bc
000002b0: faef b9be 39c3 b83d 59de 483e 5049 f33c
000002c0: 8aba 063d 9ede 32bd 5348 053e c7f9 8dbd
000002d0: 8268 18be 681d 2abe d4f2 e5bd 1bb6 02be
000002e0: 37ff 6cbd aab8 b73d 19df a93d 99c8 edbd
000002f0: 2e06 913d 39c6 6b3d 6e83 8d3d 2363 a53c
00000300: f10d 21be 0f98 253d c996 5cbe fc63 6dbd
00000310: b98c 0f3e 1934 193e dc6d 5ebe c3dd e6bd
00000320: eb68 54be f0d4 dc3d 5c2a 1d3c 404c 45be
00000330: abac a3bd e744 dcbc 4f86 cebd c773 d53d
00000340: 1563 323d 2c0c 2ebd af72 2ebe 3a2a 5dbe
00000350: 606e 53be aecf 553e d6ea 53be 9e3f 29bd
00000360: 96ce b6bd 15e7 073d 4d9e b83c 7bb9 cdbe
00000370: b9e1 a5bd b017 283e 8e74 d13d 8e2f d4bd
00000380: 6342 8b3d 26b5 fe3d c4e0 0a3e 4944 86be
00000390: 4f99 583e e42f 643c a61b c63d b618 3cbc
000003a0: 5eac dd3d 23f3 b8bc ff9d 293e cb09 84be
000003b0: e79a aa3d 9ca8 883d a32d 33be 21db b7be
000003c0: 5dcf ffbd d9a0 8dbe f2eb 8a3c bd8d 073e
000003d0: acd4 893d 1a87 00be aa9d 693e 6194 c4bb
000003e0: ccf4 393e d7a5 48be 25f0 e53d eaba 58bc
000003f0: 5b76 2ebe e8d0 57be 354e d7bd 48b0 94bd

fc1.bias f4 [256]
0.013075692 -0.16930301 -0.31635642 0.18885493 -0.17329165 0.05366422 0.033054076 0.15859602
-0.14067577 -0.22667901 0.1780861 -0.14187732 0.27867693 -0.13091683 0.005311432 -0.032917347
0.070741005 -0.19767144 0.12703945 -0.058476537 0.16986988 0.12437495 -0.09729587 0.06285584
-0.14591253 0.15729329 -0.019290676 -0.16241977 -0.072187334 -0.056965895 0.14575318 -0.112841435
0.047093462 -0.08158608 0.056126703 -0.04241612 0.19073527 0.07872344 -0.10498561 -0.11417896
-0.08380928 -0.028373394 -0.028714616 -0.24470608 -0.033412598 0.04931838 0.05509076 -0.11804134
-0.16886987 -0.12835564 -0.051957123 -0.06759082 0.018775964 -0.051299248 -0.14919873 0.030133743
-0.21043733 0.10324971 -0.12661783 -0.07983086 0.26195076 0.17811581 0.046683185 -0.00080673565
0.15796626 0.027818216 -0.07015277 0.07721524 0.16832875 0.019806495 -0.2766434 0.027430257
0.30013543 0.16859072 -0.018579103 -0.111124784 -0.038891215 0.1831034 -0.011592977 -0.11528776
-0.1258711 -0.10810665 0.1263429 -0.11719043 0.17341125 0.017874839 -0.052333932 -0.13110995
0.20324343 0.018732231 0.0075627323 0.09168474 0.29905674 0.19449331 -0.14276506 -0.028963178
0.021794809 0.059914786 -0.10237374 -0.041435514 -0.22411384 0.1729296 0.15323065 -0.15035142
-0.007654054 0.109541476 0.09705596 0.13733809 -0.25202346 0.19945008 0.18131025 0.1590371
0.013486641 0.25698146 0.017484546 -0.121932015 0.03979198 -0.22426794 0.10163232 0.051139582
-0.08404123 0.27456227 -0.15340774 -0.15014155 -0.1418108 -0.09012444 -0.016861092 -0.24179785
0.15552811 0.17981373 -0.027893465 -0.014882451 0.19422084 -0.09352285 0.060005225 0.058914337
-0.13229561 0.11924808 -0.24421312 -0.19074896 0.0011301577 -0.037431348 -0.21717797 -0.11137019
0.119831525 -0.07187026 -0.11832501 -0.083621524 -0.1536922 -0.23757803 -0.06542512 0.14046158
-0.12765527 -0.033959273 0.15185654 -0.16533414 -0.09872666 -0.09886755 0.017513838 0.026285525
0.18553026 0.19072834 0.053111255 -0.056254786 -0.15415186 0.05439703 0.16204305 0.10250509
-0.10315031 0.07734375 0.22372334 -0.09029992 0.15536742 0.089766994 -0.17619489 0.19185151
0.10947835 -0.075786725 -0.09557697 0.04673352 -0.0441445 -0.16045535 0.04032952 0.14473742
-0.18778257 0.15877983 -0.2734898 0.1207899 -0.08780343 -0.089236364 0.049953137 -0.028508926
0.016990319 -0.010115449 -0.10223434 -0.19160695 -0.06143311 0.028572619 0.014990235 -0.16965087
0.099605836 -0.0011875283 -0.28278124 0.15202905 0.030189123 0.1668013 -0.20931298 -0.11552962
-0.1590537 -0.078971826 0.11764171 -0.19737905 0.056378644 -0.04914914 0.11951119 0.14038771
0.031563308 0.18232878 0.1410046 0.16867875 -0.20774303 -0.08577086 0.021198634 0.08765599
-0.18661214 0.004537996 -0.014428995 -0.068163104 0.17779686 0.06319212 -0.25290674 -0.0095097
0.12985092 0.058305662 0.06844845 0.11560705 -0.03384305 -0.012751672 -0.042651888 -0.0464629
0.078232855 -0.095441125 -0.19711062 0.08940951 -0.21578318 0.220054 0.082559615 -0.09962823
-0.106313 -0.014911518 0.13822842 0.093191676 -0.06641723 -0.13732603 0.15157148 0.101791315
00000000: 6d3b 563c c55d 2dbe 78f9 a1be 3063 413e
00000010: 5e73 31be 03cf 5b3d b663 073d ff66 223e
00000020: 4f0d 10be 8b1e 68be 345c 363e 4a48 11be
00000030: beae 8e3e 100f 06be 850b ae3b 57d4 06bd
00000040: a9e0 903d 626a 4abe a116 023e 1885 6fbd
00000050: 5ff2 2d3e 4bb8 fe3d 0f43 c7bd 90ba 803d
00000060: 186a 15be 7e11 213e 7b07 9ebc 5e51 26be
00000070: f4d6 93bd 1255 69bd 5240 153e 6919 e7bd
00000080: 13e5 403d 9a16 a7bd 1de5 653d 87bc 2dbd
00000090: 1b50 433e c139 a13d b202 d7bd a9d6 e9bd
000000a0: 33a4 abbd 526f e8bc ea3a ebbc 3b94 7abe
000000b0: a6db 08bd 1202 4a3d d9a6 613d a8bf f1bd
000000c0: 39ec 2cbe a96f 03be fed0 54bd 0e6d 8abd
000000d0: 0dd0 993c 291f 52bd 8dc7 18be 0adb f63c
000000e0: e27c 57be 9574 d33d 1ba8 01be 5d7e a3bd
000000f0: 691e 863e fe63 363e de36 3f3d 1d7b 53ba
00000100: e8c1 213e 07e3 e33c 41ac 8fbd 0623 9e3d
00000110: 5f5e 2c3e 3b41 a23c 34a4 8dbe 6bb5 e03c
00000120: 5aab 993e 0ca3 2c3e 3433 98bc 6495 e3bd
00000130: 654c 1fbd 757f 3b3e 78f0 3dbc fd1b ecbd
00000140: 5be4 00be 0567 ddbd 0860 013e 8901 f0bd
00000150: b892 313e 416e 923c 1b5c 56bd b041 06be
00000160: 0c1f 503e 5674 993c ccd0 f73b 35c5 bb3d
00000170: f71d 993e 4129 473e 0131 12be 3044 edbc
00000180: 078b b23c 3569 753d 53a9 d1bd 49b8 29bd
00000190: 197e 65be 7514 313e 7fe8 1c3e b9f5 19be
000001a0: dcce fabb 4857 e03d 46c5 c63d 5ba2 0c3e
000001b0: 3809 81be a43c 4c3e 65a9 393e 9fda 223e
000001c0: 13f7 5c3c 1393 833e c03b 8f3c 7eb7 f9bd
000001d0: eafc 223d 7fa6 65be 9b24 d03d bd77 513d
000001e0: cf1d acbd 6d93 8c3e eb16 1dbe b5be 19be
000001f0: da36 11be 2a93 b8bd 4620 8abc db99 77be
00000200: c342 1f3e 1721 383e d680 e4bc 86d5 73bc
00000210: d4e1 463e e888 bfbd 0ac8 753d 2950 713d
00000220: 8078 07be 5638 f43d 0113 7abe b253 43be
00000230: cd21 943a 9d51 19bd e763 5ebe 0e16 e4bd
00000240: 3b6a f53d b730 93bd 6254 f2bd c341 abbd
00000250: 7d61 1dbe a847 73be 9bfd 85bd 29d5 0f3e
00000260: 10b8 02be e118 0bbd 4880 1b3e 5a4d 29be
00000270: 3431 cabd 127b cabd 2e79 8f3c be54 d73c
00000280: a5fb 3d3e 4a4e 433e 308b 593d 6b6b 66bd
00000290: fcd9 1dbe 6ccf 5e3d 9dee 253e 30ee d13d
000002a0: 7840 d3bd 6666 9e3d bb17 653e 2aef b8bd
000002b0: a318 1f3e c2d7 b73d 6f6c 34be b974 443e
000002c0: 2f36 e03d 1236 9bbd dcbd c3bd a66b 3f3d
000002d0: ddd0 34bd 684e 24be 9130 253d 0c36 143e
000002e0: 134a 40be 2e97 223e db06 8cbe b260 f73d
000002f0: 49d2 b3bd 8ec1 b6bd a99b 4c3d 8d8b e9bc
00000300: 482f 8b3c 45bb 25bc 3d60 d1bd 9d34 44be
00000310: 49a1 7bbd 2011 ea3c 9a99 753c f5b8 2dbe
00000320: 25fe cb3d d6a6 9bba b4c8 90be 81ad 1b3e
00000330: 2e4f f73c f6cd 2a3e 2456 56be cb9a ecbd
00000340: f9de 22be fbbb a1bd 23ee f03d bc1d 4abe
00000350: 4bed 663d 9c50 49bd 48c2 f43d ccc1 0f3e
00000360: 8748 013d 65b4 3a3e 8363 103e 1fba 2c3e
00000370: 97ba 54be a2a8 afbd c2a8 ad3c fc84 b33d
00000380: 4117 3fbe 78b3 943b 9767 6cbc 1999 8bbd
00000390: 6110 363e df6a 813d fe7c 81be 93ce 1bbc
000003a0: a4f7 043e ebd1 6e3d b32e 8c3d 64c3 ec3d
000003b0: 039f 0abd 64ec 50bc bfb3 2ebd e24f 3ebd
000003c0: 8c38 a03d a376 c3bd 5ed7 49be 551c b73d
000003d0: 44f6 5cbe d655 613e 0415 a93d e309 ccbd
000003e0: a1ba d9bd 714f 74bc c08b 0d3e 47db be3d
000003f0: c205 88bd 329f 0cbe 8e35 1b3e f777 d03d

fc2.weight f4 [128, 256]
0.00094899605 0.1604538 0.016073314 -0.11509521 0.10388232 0.026355013 -0.07166642 0.11784726
-0.07026136 0.018059516 0.119538404 -0.039205916 0.052168734 0.015897194 0.07079221 0.11557989
0.062819466 0.098145485 0.010270393 0.3053987 0.09247027 -0.019924533 0.1027805 -0.074111916
-0.07624429 -0.021764409 -0.13084413 -0.04495353 -0.06410459 -0.01416925 -0.054951277 0.025508942
0.042840384 0.0029331103 -0.06393892 -0.00203346 -0.0967344 -0.056881554 0.07132296 -0.10117022
-0.04638617 0.026424468 0.01115214 -0.04548579 -0.23254353 0.009809464 0.14144614 0.10890489
-0.073931806 0.14441675 0.097990304 0.049189847 0.03464018 -0.041094225 -0.08727008 -0.06947146
0.00015327753 -0.018473895 -0.066709645 -0.023729308 0.09177956 0.065965705 -0.057760052 -0.10467704
0.06474131 -0.08594929 0.05094147 0.06646339 -0.04042107 -0.0791543 -0.09596075 0.031188296
0.023169836 0.026390998 0.008677524 -0.1490505 -0.20247395 -0.06838411 -0.096256144 0.007415103
0.10774957 -0.032384716 0.047079656 0.10687486 -0.00964695 0.026683815 -0.10066238 -0.07391344
0.04488429 -0.090777695 0.08720988 -0.011114388 -0.12932123 -0.23037313 0.076936014 -0.08733875
0.056975275 -0.13369358 0.0661669 -0.07059381 0.14487605 0.05988202 0.08862832 -0.0012598214
-0.03203798 -0.024554623 0.036172964 -0.11156987 -0.11954337 0.10787714 0.014633523 0.096925125
-0.02550483 -0.08574846 -0.10100126 0.083135225 0.047668733 -0.093181275 0.2093444 0.00876215
0.09180634 0.044229466 0.023846265 0.11452036 0.052545223 0.124665365 -0.031343974 0.00033889787
0.08626793 0.091236465 0.024286205 0.08132306 -0.011377276 -0.06437477 0.07554482 -0.05179913
0.11526097 -0.20675538 -0.022043664 -0.00043240326 0.019678328 0.0065434347 0.023856815 0.06733541
-0.2400405 -0.113150015 -0.13592307 -0.09508206 -0.016290259 -0.048762877 0.024878623 -0.05117503
0.03426142 0.008311144 0.094269864 -0.034241498 0.024341883 0.010981413 0.0966329 -0.083058245
-0.045759853 0.107244685 0.07398861 0.034150247 -0.0031871502 0.058023926 -0.1390407 -0.013204245
-0.22445358 0.04778362 0.0368174 0.04147054 -0.121644154 -0.081285015 0.3895729 0.009240974
0.17741388 -0.016918411 0.024940474 0.23896152 0.048932433 -0.14537545 -0.09062625 0.0480162
0.19272971 0.20686597 0.076057434 0.077173606 0.12453408 -0.038059466 0.08631308 -0.13466895
-0.096762724 0.027207896 -0.018113526 0.026668834 0.09937476 0.020003231 0.032192957 -0.18427987
0.09626505 0.045460127 0.06795568 -0.062474824 0.0056724465 -0.03277732 -0.018075936 0.026243066
0.09131116 0.15929624 0.066405654 -0.08537781 -0.04552132 -0.11446857 0.17170396 -0.031963833
-0.076137304 0.00786274 0.033016067 -0.0052146716 0.024218256 -0.18524878 -0.037175916 -0.027566316
-0.16471371 -0.016217723 0.03216661 0.16562378 0.09555023 0.120198816 -0.15098926 -0.058962386
0.09458165 0.028703319 -0.013417709 -0.060004 0.08875899 -0.03808521 -0.28783286 -0.014800077
0.22732666 -0.18453486 -0.049070586 0.11682502 0.09290949 0.09482085 0.00023477504 0.01233442
0.0077731665 0.049940605 -0.08487893 -0.124775715 0.028107638 -0.025191301 -0.09884272 -0.05659397
00000000: 0cc6 783a 004e 243e 2fac 833c 0ab7 ebbd
00000010: 41c0 d43d 78e6 d73c d8c5 92bd e759 f13d
00000020: 30e5 8fbd 8df1 933c 8dd0 f43d 6296 20bd
00000030: e2ae 553d d53a 823c 82fb 903d 26b5 ec3d
00000040: 7ea7 803d 8000 c93d 2745 283c 385d 9c3e
00000050: 0e61 bd3d c638 a3bc 957e d23d fdc7 97bd
00000060: f725 9cbd 464b b2bc 01fc 05be 3121 38bd
00000070: 4449 83bd 2426 68bc 9714 61bd 21f8 d03c
00000080: 6679 2f3d 6d39 403b 69f2 82bd cc43 05bb
00000090: af1c c6bd a2fc 68bd c611 923d 5532 cfbd
000000a0: 6dff 3dbd 2078 d83c 77b7 363c 4f4f 3abd
000000b0: e41f 6ebe e0b7 203c 42d7 103e 8709 df3d
000000c0: 8f69 97bd fce1 133e 24af c83d 4b7b 493d
000000d0: dde2 0d3d 6b52 28bd a8ba b2bd 0e47 8ebd
000000e0: 20b9 2039 9156 97bc 119f 88bd f763 c2bc
000000f0: ecf6 bb3d 0719 873d ce95 6cbd ea60 d6bd
00000100: 1897 843d 2e06 b0bd 01a8 503d f51d 883d
00000110: 9090 25bd a61b a2bd 1287 c4bd 997e ff3c
00000120: abce bd3c ef31 d83c 2c2c 0e3c b2a0 18be
00000130: 5555 4fbe f80c 8cbd f121 c5bd 64fa f23b
00000140: ceab dc3d d6a5 04bd 99d6 403d 35e1 da3d
00000150: 3e0e 1ebc 0498 da3c 1428 cebd ee5f 97bd
00000160: 97d8 373d a8e9 b9bd 189b b23d 1f19 36bc
00000170: c96c 04be efe6 6bbe a190 9d3d a9de b2bd
00000180: e85e 693d f8e6 08be 8382 873d 7d93 90bd
00000190: 635a 143e d946 753d c482 b53d 9720 a5ba
000001a0: 423a 03bd c726 c9bc 1a2a 143d be7e e4bd
000001b0: 28d3 f4bd b1ee dc3d 72c1 6f3c ae80 c63d
000001c0: 81ef d0bc e39c afbd c0d9 cebd cd42 aa3d
000001d0: 4a40 433d d3d5 bebd 615e 563e 1f8f 0f3c
000001e0: f604 bc3d f529 353d 3e59 c33c a789 ea3d
000001f0: a939 573d 8e50 ff3d 8a62 00bd 1aae b139
00000200: 3ead b03d 2fda ba3d ddf3 c63c b48c a63d
00000210: c167 3abc ebd6 83bd 3eb7 9a3d 532b 54bd
00000220: f20d ec3d afb7 53be ea94 b4bc 2fb4 e2b9
00000230: 7234 a13c 4f6a d63b 5e6f c33c 26e7 893d
00000240: 2dcd 75be 32bb e7bd 6b2f 0bbe 62ba c2bd
00000250: 2673 85bc 95bb 47bd 41ce cb3c e99c 51bd
00000260: b455 0c3d 772b 083c 8f10 c13d d040 0cbd
00000270: a168 c73c 62eb 333c 78e7 c53d 711a aabd
00000280: af6e 3bbd 1aa3 db3d 5787 973d 21e1 0b3d
00000290: 82df 50bb 7faa 6d3d af60 0ebe 9e56 58bc
000002a0: 29d7 65be c2b8 433d d8cd 163d 03dd 293d
000002b0: 9220 f9bd c278 a6bd 1976 c73e 7467 173c
000002c0: fcab 353e 7b98 8abc f74f cc3c 54b2 743e
000002d0: 606d 483d 4ddd 14be 419a b9bd a3ac 443d
000002e0: f05a 453e acd4 533e 00c4 9b3d 320d 9e3d
000002f0: b90b ff3d 3ee4 1bbd e9c4 b03d a8e6 09be
00000300: 892b c6bd 18e3 de3c d162 94bc 9978 da3c
00000310: ff84 cb3d d1dd a33c c3dc 033d ddb3 3cbe
00000320: 9c26 c53d 6634 3a3d 592c 8b3d 9ae5 7fbd
00000330: eedf b93b 8341 06bd fc13 94bc b3fb d63c
00000340: 5801 bb3d 8e1e 233e b0ff 873d 90da aebd
00000350: 9074 3abd 7f6e eabd 2ad3 2f3e 82ec 02bd
00000360: e0ed 9bbd b9d2 003c db3b 073d d6df aabb
00000370: 5d65 c63c dbb1 3dbe c645 18bd c1d2 e1bc
00000380: b6aa 28be 08db 84bc 23c1 033d 4899 293e
00000390: d7af c33d cc2a f63d ee9c 1abe 8b82 71bd
000003a0: 06b4 c13d 3923 eb3c f3d5 5bbc c1c6 75bd
000003b0: 46c7 b53d 3dff 1bbd d45e 93be 067c 72bc
000003c0: 52c8 683e b5f6 3cbe 3dfe 48bd f541 ef3d
000003d0: 5547 be3d 6f31 c23d f22d 7639 4f16 4a3c
000003e0: 0cb6 fe3b 858e 4c3d 01d5 adbd 698a ffbd
000003f0: fd41 e63c fd5d cebc 0d6e cabd 14cf 67bd

fc2.bias f4 [128]
-0.0533493 0.023201425 0.023670569 0.033193436 -0.0011717364 0.0759622 0.009567109 0.0010274077
-0.046298813 -0.03686925 0.048151616 0.040269345 0.0768758 0.03722296 0.039258696 0.0071148267
0.040759515 0.06507563 -0.05393133 -0.0071140258 -0.12620224 0.024816321 -0.11552214 0.031661548
0.09024493 -0.042140115 0.004763668 0.032502294 -0.15306354 0.024325615 0.07934205 -0.05096995
0.05245464 -0.0012671015 0.02450597 0.04864411 0.07650513 -0.120418526 0.0257149 0.050180696
0.017971309 -0.0033037933 0.011881991 0.06404266 -0.0013276094 0.05809686 0.066903874 0.0663926
-0.08008859 -0.04397206 -0.05378476 -0.030733202 0.011866823 0.091477945 0.031030621 0.07865555
0.074746564 -0.08296515 -0.053685006 -0.05157506 0.13328311 0.0425596 0.014920804 -0.05554339
-0.038857035 0.010522614 0.02234965 -0.06908027 0.06217855 0.07073203 -0.0013338643 0.0013791933
-0.01706117 -0.07295657 0.029887645 0.05638126 -0.013112181 -0.010666947 -0.033135347 -0.0006699012
-0.011356161 0.067680486 -0.07202042 -0.03643901 -0.00020607296 0.02765998 0.046487942 0.016883345
-0.087180816 0.0282568 0.052854426 0.036228295 -0.0064667915 0.007176537 -0.03656516 0.05164103
0.06354745 -0.0039163786 -0.04216368 0.074400716 -0.008157148 0.057680395 -0.055752262 -0.007534505
-0.019523544 0.1104875 0.018804107 0.08747771 -0.061081477 0.013733919 0.07008952 -0.04050323
0.014429568 0.042683136 0.06044982 0.050564494 0.057978425 -0.009642468 0.058633942 -0.07256668
0.012056161 0.0630194 0.06788194 -0.041670956 0.04113792 -0.0028407257 0.0020793001 -0.023576345
00000000: cc84 5abd ea10 be3c c8e8 c13c d7f5 073d
00000010: f394 99ba 1292 9b3d 5dbf 1c3c 15aa 863a
00000020: d3a3 3dbd 3604 17bd a13a 453d 78f1 243d
00000030: 0f71 9d3d 1a77 183d bacd 203d 7e23 e93b
00000040: 73f3 263d 5f46 853d 19e7 5cbd c61c e9bb
00000050: 293b 01be 994b cb3c df96 ecbd 8aaf 013d
00000060: 55d2 b83d 1d9b 2cbd 8b18 9c3b 2021 053d
00000070: b0bc 1cbe 8346 c73c 167e a23d dec5 50bd
00000080: adda 563d df14 a6ba bec0 c83c 0c3f 473d
00000090: b9ae 9c3d fd9d f6bd 0ea8 d23c 468a 4d3d
000000a0: 9138 933c 7484 58bb afac 423c cc28 833d
000000b0: 2e03 aeba f9f6 6d3d e604 893d d8f8 873d
000000c0: 7d05 a4bd 0c1c 34bd 694d 5cbd 32c4 fbbc
000000d0: 106d 423c ca58 bb3d ee33 fe3c 2916 a13d
000000e0: ba14 993d a2e9 a9bd cfe4 5bbd 5f40 53bd
000000f0: 5e7b 083e fa52 2e3d 6376 743c 7781 63bd
00000100: 8e28 1fbd 0b67 2c3c 9d16 b73c f579 8dbd
00000110: efae 7e3d f4db 903d 0fd5 aeba 0cc6 b43a
00000120: dec3 8bbc 416a 95bd efd6 f43c 09f0 663d
00000130: 79d4 56bc 6bc4 2ebc eeb8 07bd 4f9c 2fba
00000140: 310f 3abc 119c 8a3d 717f 93bd 1241 15bd
00000150: 4a15 58b9 2f97 e23c 246a 3e3d f14e 8a3c
00000160: db8b b2bd ce7a e73c e27d 583d 1f64 143d
00000170: 61e7 d3bb 2829 eb3b 59c5 15bd 8b85 533d
00000180: 2a25 823d f754 80bb d3b3 2cbd 675f 983d
00000190: 8fa5 05bc 4742 6c3d 7c5c 64bd 02e4 f6bb
000001a0: d7ef 9fbc 4547 e23d 120b 9a3c 8327 b33d
000001b0: 9230 7abd 3b04 613c 188b 8f3d b7e6 25bd
000001c0: ff69 6c3c 83d4 2e3d 3b9a 773d b71c 4f3d
000001d0: c97a 6d3d 71fb 1dbc 252a 703d d79d 94bd
000001e0: 3487 453c 5110 813d b005 8b3d 2aaf 2abd
000001f0: 3c80 283d 782b 3abb de44 083b 2e23 c1bc

fc3.weight f4 [2, 128]
0.24409208 -0.37918064 -0.08307482 -0.060129 0.012326031 -0.14634427 -0.07600321 -0.0021876046
-0.02997825 -0.058220174 -0.18997139 -0.0192721 -0.31462413 0.019749714 -0.03436886 -0.015839798
0.07011839 -0.6606034 0.17253469 -0.07955925 0.12148517 -0.018900733 0.09386449 0.31053263
-0.15956113 0.06829337 -0.048085865 -0.14641538 0.13296264 0.06890096 -0.101759695 -0.027845712
0.17504254 0.17220338 -0.09384817 0.12060428 -0.23547316 0.2412393 0.060382154 0.20416485
-0.13879694 -0.20473057 -0.25902092 0.11241217 0.14383344 0.23003773 -0.30732414 0.05170365
0.21909203 0.17625135 0.18187028 -0.19636437 0.15781884 0.045888923 -0.16743082 -0.06666795
0.08844623 0.13566898 0.21118717 -0.44390282 0.014299958 -0.115012795 -0.04540361 0.15940921
0.40125388 0.13937828 0.027904231 0.017771212 -0.1295755 -0.10062839 0.1307074 0.13341317
-0.05063245 -0.056323506 0.11069174 0.39834437 -0.07641349 0.33433422 0.088779576 0.21728349
0.107108496 -0.17795968 0.29839155 0.577513 0.056464896 0.04819313 0.05963348 0.0492428
0.12605171 0.108617336 0.1927635 0.009617146 0.116368406 0.20910574 -0.15867311 -0.07689261
-0.280659 -0.064135455 0.21984111 -0.26717818 -0.085141994 -0.031769045 -0.06043365 -0.18076451
-0.053886354 -0.28154963 0.17391685 -0.09332031 0.19141644 -0.003954378 -0.16611512 -0.17018367
0.071514025 -0.01225483 -0.082967535 0.14388609 -0.14281696 -0.13439663 -0.06672449 0.16250162
-0.08765318 -0.118238434 -0.030594759 0.11069413 0.23755343 0.26483193 -0.08557212 -0.08262225
-0.39518037 0.07988978 0.0630821 -0.37531644 -0.11451137 -0.17286721 0.0007044839 0.2444304
0.08301791 0.159348 -0.22349489 0.017130889 -0.21635497 -0.32831603 0.023486318 0.22484793
-0.105344094 -0.2074646 0.20032038 0.03779409 0.11812455 -0.14064981 0.25690645 -0.17618732
-0.0837569 0.29062313 -0.23674446 -0.26932105 0.4384265 -0.10769826 -0.18433288 0.033676937
-0.032570865 0.4413781 0.16382544 -0.120607376 -0.18103802 0.15535563 0.0764637 -0.019984946
-0.030404678 -0.18163535 0.072808646 -0.041782647 -0.059162233 0.1590018 -0.124753416 0.47409433
0.29261354 0.10805487 0.19486462 -0.110726826 0.0632956 -0.121309936 -0.012257696 -0.4208415
-0.31367278 0.33683378 0.32506943 0.14436167 -0.5487597 -0.3212568 0.0002995178 0.007823433
0.014220337 0.0072088456 0.29008645 0.25847197 -0.10222316 -0.09963562 -0.15944983 0.06417668
0.05043031 0.35582238 0.0135808475 -0.25639242 0.10684183 0.0022200805 0.22468066 -0.7757296
0.1692962 -0.14976032 0.10917932 0.10544793 -0.18135153 0.063839406 -0.33964142 -0.21348886
0.0610414 -0.14342907 -0.09974977 -0.05717365 0.041005418 -0.056666046 -0.008769542 0.08424256
-0.13105784 0.052637428 0.0067957 -0.045771293 0.14364061 0.014610986 0.20109272 -0.14096835
0.28482974 -0.14529729 -0.008912495 -0.2510039 0.19761592 0.03795425 0.25771284 0.1941339
0.17296958 0.2920991 0.052011415 0.34995225 -0.23193444 -0.1217395 0.05384406 0.15431428
-0.1475823 -0.027727174 -0.23174165 0.19152525 0.10092685 -0.022876332 0.062103715 0.07936247
00000000: 46f3 793e f723 c2be 2223 aabd d449 76bd
00000010: 1ff3 493c 46db 15be 92a7 9bbd ea5d 0fbb
00000020: f294 f5bc 4778 6ebd dc87 42be 86e0 9dbc
00000030: 6a16 a1be 27ca a13c 5dc6 0cbd 77c2 81bc
00000040: 3b9a 8f3d 4e1d 29bf efac 303e f6ef a2bd
00000050: 38cd f83d b6d5 9abc 073c c03d 22fe 9e3e
00000060: fe63 23be 65dd 8b3d aff5 44bd eaed 15be
00000070: 5c27 083e f21b 8d3d 6367 d0bd b11c e4bc
00000080: 5a3e 333e 1556 303e 7833 c0bd 60ff f63d
00000090: e01f 71be 6f07 773e 4753 773d 9710 513e
000000a0: c920 0ebe e4a4 51be 649e 84be 5a38 e63d
000000b0: 1349 133e 038f 6b3e 9759 9dbe 35c7 533d
000000c0: a959 603e 3c7b 343e 343c 3a3e be13 49be
000000d0: 439b 213e 06f6 3b3d fc72 2bbe 3589 88bd
000000e0: 4c23 b53d cfec 0a3e 7341 583e 3b47 e3be
000000f0: 5f4a 6a3c d48b ebbd 23f9 39bd 2b3c 233e
00000100: 2671 cd3e 2eb9 0e3e 6a97 e43c ef94 913c
00000110: 71af 04be 4216 cebd 29d8 053e 769d 083e
00000120: f963 4fbd 7ab3 66bd 5ab2 e23d cbf3 cb3e
00000130: ad7e 9cbd db2d ab3e 11d2 b53d 907f 5e3e
00000140: b35b db3d 103b 36be c7c6 983e e4d7 133f
00000150: bc47 673d 2966 453d 3c42 743d d1b2 493d
00000160: b313 013e c472 de3d cc63 453e 3c91 1d3c
00000170: 8f52 ee3d d11f 563e 347b 22be df79 9dbd
00000180: 89b2 8fbe 7359 83bd 071e 613e 94cb 88be
00000190: ed5e aebd 4220 02bd 4689 77bd 551a 39be
000001a0: f0b7 5cbd 4627 90be 4217 323e b81e bfbd
000001b0: ac02 443e ba93 81bb 151a 2abe a144 2ebe
000001c0: f275 923d 7cc8 48bc e2ea a9bd e056 133e
000001d0: 9c3e 12be 459f 09be d9a6 88bd d366 263e
000001e0: 8383 b3bd fe26 f2bd dca1 fabc 9bb3 e23d
000001f0: 3541 733e 0d98 873e 7040 afbd db35 a9bd
00000200: 1555 cabe 419d a33d 3031 813d 7a29 c0be
00000210: f084 eabd 1a04 31be 1dad 383a f64b 7a3e
00000220: 4b05 aa3d 1f2c 233e d8db 64be 1456 8c3c
00000230: 288c 5dbe 0a19 a8be 6166 c03c 893e 663e
00000240: a5be d7bd 9a71 54be c920 4d3e facd 1a3d
00000250: 49eb f13d 8106 10be 3e89 833e 736a 34be
00000260: bd88 abbd 8ecc 943e 246d 72be 73e4 89be
00000270: 7079 e03e e890 dcbd c2c1 3cbe d4f0 093d
00000280: 0769 05bd 4ffc e13e dbc1 273e 0001 f7bd
00000290: 0862 39be 8c15 1f3e 0099 9c3d 78b7 a3bc
000002a0: 3b13 f9bc 9efe 39be b31c 953d 4824 2bbd
000002b0: 1954 72bd 5ed1 223e b87e ffbd 7ebc f23e
000002c0: 71d1 953e df4b dd3d 978a 473e bfc4 e2bd
000002d0: 20a1 813d 5871 f8bd 81d4 48bc 8978 d7be
000002e0: b899 a0be 7a75 ac3e 806f a63e 8cd3 133e
000002f0: 847b 0cbf c57b a4be 9908 9d39 db2d 003c
00000300: 6bfc 683c 2e38 ec3b 3686 943e 7056 843e
00000310: 605a d1bd c30d ccbd d146 23be 106f 833d
00000320: 0390 4e3d 5a2e b63e 3482 5e3c de45 83be
00000330: e4cf da3d c57e 113b b012 663e 3796 46bf
00000340: fc5b 2d3e c55a 19be 6899 df3d 16f5 d73d
00000350: 37b4 39be 3cbe 823d 7be5 adbe d39c 5abe
00000360: 8c06 7a3d 12df 12be 9b49 ccbd eb2e 6abd
00000370: 4cf5 273d a81a 68bd 20ae 0fbc 5d87 ac3d
00000380: 0734 06be 589a 573d 77ae de3b ae7a 3bbd
00000390: 8616 133e eb62 6f3c 40eb 4d3e 025a 10be
000003a0: 34d5 913e d0c8 14be b705 12bc 9583 80be
000003b0: d45b 4a3e ea75 1b3d f0f2 833e 09cb 463e
000003c0: f01e 313e 038e 953e ec09 553d f12c b33e
000003d0: 3980 6dbe 8f52 f9bd 978b 5c3d 9004 1e3e
000003e0: d01f 17be 1924 e3bc af4d 6dbe 321f 443e
000003f0: bdb2 ce3d 2567 bbbc 7760 7e3d ca88 a23d

fc3.bias f4 [2]
0.0045556407 -0.06117368
00000000: 7c47 953b 4191 7abd
