actor_0_checkpoint_gpu.pth (torch_old, 159294 bytes, 6 tensors)

fc1.weight f4 [256, 24]
00000000: 0480 e23d 4d7f b6bd 89b5 433c c1fe 6f3e
00000010: 239f 67be 186a e43d 3f08 1c3c a039 783e
00000020: ffd0 f9bb e77a dcbc 037a 2b3d 2c8d c93d
00000030: 4e64 fc3d b8b3 4ebe c3c2 f2bc 204b 8f3d
00000040: 68b5 263b 5913 013d 57a9 493e 3fe2 5f3e
00000050: 02da c9bc bb9b c2be 41bb 80bc 8c5b 893d
00000060: 4a51 05bd ea2e 1fbe 7a5e 553d d15f 2cbd
00000070: 1cc1 b1be e6f6 0dbc 75e3 4dbc 9640 263d
00000080: 80a7 143e 42e0 b6be b691 67be d8cc 6dbe
00000090: 46f7 abbc 7ac0 d83c 7079 623d f01d 6abe
000000a0: e5e1 243e 9773 a3be 1d8c 213e 6d2d a73c
000000b0: 3eb7 c1be 3293 dd3e e54e d4bd c7c9 9f3d
000000c0: a224 dabd 4c72 443d 9d1b 87be f75e 43be
000000d0: 1690 973d f0ad c33d 69ef 0a3e 53ac 8f3d
000000e0: 7595 45bd c656 98bd 9446 8d3d c426 1dbd
000000f0: 904b 42be 41a6 2f3d 8a7f 8c3d 6471 a23d
00000100: ff9c 0fbe 2e36 673d df33 a2bd c3ae 08bd
00000110: f827 2cbe 59d6 5abf a99f 123d 926c e3bd
00000120: 7712 d53d c198 833d 7828 cc3d 9e26 ab3d
00000130: f04b 433d 669f c83d 2422 20be 52d2 103e
00000140: 412b 05be 61fb 61bd 07f7 69bd 8001 be3d
00000150: 1d44 b43d 337a 39be e083 80be 235f 8d3e
00000160: 9ac4 acbd b0ce 543e bca3 fa3d 53ed 863d
00000170: e6a9 143b f7b6 fdbd f7aa a3bd 360f fa3d
00000180: 58ae 803d 7cd1 b13e 149c c6bd dd12 423d
00000190: c79c a53e caa2 33be 9de8 d63d 0c4c 4a3e
000001a0: 64a2 fbbc 2483 bb3d 6ce8 a63e c5e8 00be
000001b0: 4316 6a3e 8aa2 eabd 3e66 483e 9277 823c
000001c0: 0254 993e 2cde cf3d 39ac 203e 1197 d63c
000001d0: 8550 7c3e 7b69 373e 23e7 85bc 08d7 8bbe
000001e0: 931b a2bd 8d88 0cbe a096 253d cd6a cbbe
000001f0: f9d3 613e 94da 6dbd 3fba b5be a09c 9fbe
00000200: 92ab 1b3e 4568 1a3d 3810 36be 33ba 4f3d
00000210: 3c30 cb3e 72ee 123e 1405 9c3d 6d1d 1b3e
00000220: 0425 f33d 2368 02be 324a e5bd 1d28 0cbd
00000230: 63ab b63e 4162 bb3d dba9 c7bd baf6 583e
00000240: 2508 353d 773f 0f3a 1c28 c73d f8fd 153d
00000250: 8ece 453e c6bf 1f3e 582e 4ebd b329 2e3e
00000260: bd7a 5bbd 67ea 4e3c ea71 3fbe feee 0cbe
00000270: b921 c2bd 298f 943d 5275 1a3e 4e6b 95bd
00000280: 4b52 53be 1df4 043d 5102 473d 7f19 5b3e
00000290: 4bd2 47be 1512 983e c188 babd 7807 133d
000002a0: 09e0 6ebd b579 653c cb99 73bd 21c6 a53d
000002b0: 8e49 4b3d 9c5e 84be 2abd 533e f036 453e
000002c0: 4e55 4f3e a276 2d3d 2f17 16be 50fb 023e
000002d0: 524b 24bb 5808 66be 5590 39be 3851 93bd
000002e0: 0918 1abd fc25 7d3e 5374 41be e170 7cbe
000002f0: be38 923d 5ef3 16be 0c2a 783d 7af8 29be
00000300: 4d9d 0abd f48f 85be 617e 93ba d6e5 90be
00000310: 70d1 b2bd e08b 3abe 0c04 503d 6888 90be
00000320: e58b e53d 3192 dcbe e851 323e fcd3 6bbe
00000330: 0836 17bd cf56 e5bd 1c4d 83bc 9c69 21be
00000340: 6a24 093d 360a 23be 6a6d edbd 673d 243e
00000350: ffcc a7be 28cb 163f 8aff ef3c 37a0 883e
00000360: d3a7 f33c 9632 36be d040 3b3c 2fa5 c13e
00000370: 50e7 00be 7f87 d23e bd67 96bd 2a03 5f3d
00000380: 3849 34bd c297 4ebe 7c4b b2bd 1822 823e
00000390: 4a75 5d3e 1dc6 053f 3c59 a7bd be0b 59bd
000003a0: 7246 963d 5ba6 0fbe 7348 61be a7b8 913c
000003b0: 3b58 18be 54f1 c83e 8676 04bc fc97 46be
000003c0: 90d2 7bbe 4a4b 523e e7e8 eb3d ea03 673d
000003d0: 8f03 8bbe 0bac 1ebe b94e 26be 48d7 a7bd
000003e0: 0301 43be 27e6 ab3e d9dd 2b3e 6f12 a3bd
000003f0: 4b7f 7dbd b45e ac3b 3a84 4a3c 426b e6bd
0.11059573 -0.089109994 0.011945137 0.23437025 -0.226193 0.11153048 0.00952345 0.24240732
-0.007623791 -0.026914073 0.041864406 0.098413795 0.12323819 -0.20185745 -0.029633885 0.06996751
0.0025437716 0.031512592 0.19693504 0.2186365 -0.024640087 -0.38009438 -0.01571429 0.06706914
-0.032548226 -0.1554524 0.052092053 -0.042083565 -0.34717643 -0.008664822 -0.012566437 0.040588938
0.14517021 -0.3571797 -0.22614178 -0.23222673 -0.020991933 0.026458967 0.055291593 -0.22862983
0.16101797 -0.31924126 0.15776105 0.020407403 -0.37835115 0.43276364 -0.103666104 0.07802158
-0.106515184 0.047960564 -0.26388255 -0.19079195 0.07400529 0.0955466 0.1356789 0.0701529
-0.048238236 -0.07438426 0.06898227 -0.038367048 -0.18974137 0.04288316 0.06860264 0.07931784
-0.14024733 0.056448154 -0.0792005 -0.03336979 -0.16812122 -0.8548332 0.035796795 -0.111046925
0.104039125 0.0642562 0.09968656 0.08356975 0.04767984 0.09796028 -0.15638024 0.14142731
-0.13004781 -0.055171374 -0.05712035 0.0927763 0.08802054 -0.18113022 -0.25100613 0.27611646
-0.08435936 0.2078197 0.12238261 0.06588235 0.0022684275 -0.123884134 -0.07991593 0.122099325
0.062832534 0.34730136 -0.09697738 0.04738127 0.32346174 -0.17542568 0.10493586 0.19755572
-0.030717082 0.091558725 0.325992 -0.12588795 0.22860055 -0.11456783 0.19570252 0.015926156
0.29946905 0.10149798 0.15690698 0.026195081 0.24640091 0.17911331 -0.016345566 -0.27312493
-0.079154156 -0.13723965 0.04042685 -0.3972992 0.22053517 -0.05806978 -0.35493657 -0.31174183
0.15202168 0.037697095 -0.17779624 0.050714683 0.39685237 0.14348772 0.07618156 0.15147944
0.118722945 -0.12735038 -0.11195792 -0.034217943 0.35677633 0.091496 -0.09749194 0.21187869
0.04419722 0.0005464474 0.09724447 0.036619157 0.19317076 0.156005 -0.050337166 0.17008094
-0.05358385 0.012629128 -0.18695799 -0.13763043 -0.09479088 0.07253868 0.15083817 -0.07295857
-0.20636861 0.032459367 0.048586193 0.21396445 -0.19513814 0.29701295 -0.09108115 0.035895795
-0.058319125 0.014006068 -0.05947284 0.08094431 0.049630694 -0.2585343 0.20677629 0.19259238
0.20247385 0.042349465 -0.14657281 0.1279118 -0.0025069308 -0.2246412 -0.18121465 -0.071932256
-0.037620578 0.24721521 -0.1889203 -0.24652435 0.07139729 -0.14741275 0.060586974 -0.16598693
-0.03384142 -0.2608639 -0.0011252874 -0.2830035 -0.08731353 -0.1821742 0.05078511 -0.2822907
0.112083234 -0.43080285 0.17414057 -0.23030084 -0.036916763 -0.11198198 -0.01602798 -0.15762943
0.033481993 -0.15921864 -0.11593135 0.16039048 -0.32773587 0.5890374 0.029296655 0.26684734
0.02974311 -0.17792735 0.011429027 0.37821338 -0.12588239 0.41119 -0.07344005 0.054446377
-0.04401514 -0.20175079 -0.08705804 0.25416636 0.21626773 0.5225542 -0.08171317 -0.052989714
0.07337655 -0.14028303 -0.22000293 0.017788244 -0.14877407 0.3924662 -0.008084899 -0.19393915
-0.24592042 0.20536533 0.11519032 0.056400217 -0.27151152 -0.15495317 -0.16240968 -0.081953585
-0.19043355 0.3357403 0.16783847 -0.079625 -0.061888974 0.005260313 0.012360627 -0.112509266

fc1.bias f4 [256]
00000000: 0f02 e83d e6ad 3d3e 40a5 b5bd b9f2 2a3e
00000010: e847 8dbe 6c25 ad3a 8ca2 da3d 49a6 363d
00000020: f23e dd3c e421 8f3e 512b 203e 35d6 e8bd
00000030: 8668 eb3d ac60 b1bd 0f4a 52bc 81ec a5bd
00000040: 2831 3bbd 0c85 703c 644d 55bd fb68 1abe
00000050: fc9e 4dbe cd8e 333e 435c ee3d 2743 ac3e
00000060: 1426 8ebd e50f a03d 0a58 3dbe 0253 ce3d
00000070: a5a4 803e 0b36 2c3b 88c0 30bc 37e9 8cbd
00000080: 347e 65bd dc08 1cbe a54b 9fbd fc31 3c3e
00000090: 6a03 0fbe 9f45 823d 869a bcbc b5b3 56be
000000a0: bef8 23be 19cb 9dba 788e 593d f031 9ebd
000000b0: f98c 25be a662 89bd 8552 843e a29a c0bd
000000c0: 500f 94ba 5564 1b3d 3d2f e5bd 3a9e 2abe
000000d0: 7df5 c93d f7fe cabd 12ac 27bd 9a3a f13d
000000e0: dabc 183d 13a7 a03b 21bd 393e e523 0bbe
000000f0: 578f d83d f963 223e dcb7 08be 58e2 eb3c
00000100: d7ac f9bd 774e 37be dbb0 3fbe 57f1 cd3c
00000110: 82e8 25be dc79 ab3d c3d1 10bd 6699 47be
00000120: 921d 7bbe c0d4 1a3d 5f3a c4bd ba01 db3d
00000130: 76a4 eb3d 6a1c 2fbe 9d63 493e 25a9 273e
00000140: 6c35 2cbe 687e ccbd 14d4 57bb d0d9 28be
00000150: d763 01be b157 a6bd 9c05 9c3d 7e3f 0bbe
00000160: 4459 28be b8fb 02be d152 633d d9d6 b7bd
00000170: 8a78 49be 79b9 483e c946 57be c610 563e
00000180: f61c 493e 7f8b ffbc f396 393d 3431 57be
00000190: b0c4 133e 76d5 063e e847 bdbd 8985 4e3e
000001a0: 1edb 07bd 5858 4f3c 1d48 413e 1869 883d
000001b0: a9ea a3bd dceb 04be 574a 38bc ce2a cbbd
000001c0: c0e6 75bd 61ea a8be 930c 983d b33f 27be
000001d0: 355e 36be fbd9 f73d 9af5 533e 0212 f63d
000001e0: e24c 59bc 9a87 703e 6ba9 4ebe f336 d43c
000001f0: c1b0 4f3d 0e0d 32be 7111 4d3e f927 b83b
00000200: 5581 303e 008a 203e 755c 973d d2d8 11be
00000210: c9b6 923d 35a5 babc b00f aebc 691b 0d3e
00000220: c464 3cbd 8162 963d 7432 513e 32bb 5b3e
00000230: ee9b 8c3d 03e6 873d fb5b 44be 6567 663d
00000240: b994 9f3d c90f d13d 223c 65bd 30f8 02be
00000250: f7b9 35be a18a 7d3b a32c 353e 18a1 3fbe
00000260: be79 d63d 9b79 353e bfb6 dd3d e274 dd3d
00000270: c0d6 70bd 3241 b83e 55be 9abc 4856 77bd
00000280: 010d c9bb e5a8 3cbe a6ce 1fbe 9073 c73d
00000290: 0589 a73d 8de8 85be 6f9b 3fbd b955 01bd
000002a0: 6e10 21be 5cc6 16be 1149 2a3e f9af 233e
000002b0: 356c bbbc e9d7 81be e1d2 263e 6cd9 1ebe
000002c0: 2721 f7bd ec50 c1bd 22e0 34be 9a97 093e
000002d0: 2a84 563e 71d8 35be b830 5e3e 7a28 b0bd
000002e0: da0c 03be 526f dcba cb1f e4bd 2031 083e
000002f0: 04b8 1f3e a824 c0bd f0f0 05bc b7cd 853c
00000300: dba8 f33c 5a34 e23c 394d 163d d462 e9bd
00000310: a138 87bd 4dbb eabd 78fd 78be c869 eb3d
00000320: 3d33 6bbe 19f3 96bd b10f f63d fc50 31be
00000330: 3007 adbd d25b 263e 8612 b7bc 5a2f 2b3e
00000340: ac4a 003d a0c5 8bbd bcf5 083e 5c4c 183e
00000350: 7054 cd3c 013e c6bd 9e5a 64be 4678 7f3d
00000360: 06ba 24be c24f 76be b152 12be af12 f93d
00000370: 5f60 8c3b 7d19 e63d f0a8 a23d 3275 80bd
00000380: f845 20bd 76e4 8fbb c438 e4bd a936 6d3e
00000390: c211 a0bd f14c 203d efb4 89bd b72c 8abd
000003a0: 36ea f43c d462 34be 453c 373d 4ae5 7bbd
000003b0: 3510 25be a0d0 2f3e fd2a c2bd c654 f13d
000003c0: 4f1e debc 77e2 1a3e 2700 f5bd bebf e4bd
000003d0: 0128 983e dbe0 ad3a cdd5 f3bd 7a90 123e
000003e0: 6ecd 69bd 667c 463d 89b9 0bbe a441 5c3e
000003f0: 35cd cf3d c92f c03d b58e 723d abcb e3bd
0.11328518 0.18523368 -0.088694096 0.16694154 -0.27593923 0.0013210005 0.106755346 0.044592176
0.027007554 0.27955544 0.15641524 -0.11368982 0.11494546 -0.08661017 -0.01283504 -0.0810175
-0.045701176 0.014680158 -0.05207576 -0.1507911 -0.20080179 0.17534943 0.11638691 0.33644983
-0.069408566 0.07815532 -0.18490615 0.10074426 0.25125614 0.002627733 -0.0107880905 -0.0688042
-0.05602856 -0.15237755 -0.077781 0.18378443 -0.13966146 0.063609354 -0.023022901 -0.2096699
-0.16012856 -0.0012038677 0.053114384 -0.077243686 -0.16167058 -0.06708269 0.25844207 -0.09404494
-0.0011296067 0.03793748 -0.111906506 -0.16661921 0.09861276 -0.09911912 -0.040935583 0.117787555
0.037289478 0.0049027293 0.18138553 -0.13587911 0.10574215 0.15858449 -0.13351387 0.028794453
-0.1219117 -0.17901026 -0.18719809 0.025139494 -0.16201976 0.08372852 -0.035356294 -0.1949211
-0.24522999 0.03780055 -0.09581446 0.10693689 0.11505978 -0.17100683 0.19666906 0.16373117
-0.16817254 -0.099850476 -0.0032932805 -0.16489339 -0.12635742 -0.081221946 0.076182574 -0.13598439
-0.16440302 -0.12791336 0.0554989 -0.08976526 -0.19674888 0.19602002 -0.21023096 0.20904836
0.19639954 -0.031194447 0.045309972 -0.21014863 0.14430499 0.13167366 -0.09242231 0.20168127
-0.03316795 0.01265534 0.18875165 0.0666067 -0.08003742 -0.12980598 -0.011248193 -0.09920274
-0.060034513 -0.32991317 0.07424273 -0.16332893 -0.17809375 0.12102123 0.20699158 0.120151535
-0.013262959 0.23489228 -0.20181815 0.025905108 0.050705675 -0.17387792 0.20026185 0.0056199995
0.17236836 0.15677643 0.07390682 -0.14242867 0.0716377 -0.022783855 -0.021247715 0.13779987
-0.045994535 0.07343007 0.20429403 0.21458128 0.06865679 0.06635668 -0.19175713 0.05625095
0.077920385 0.10208089 -0.05596555 -0.12789989 -0.17746721 0.0038687366 0.17692809 -0.18713796
0.10472439 0.1772217 0.10825872 0.10813309 -0.05879855 0.3598724 -0.018889586 -0.06038502
-0.0061355834 -0.18423803 -0.15606174 0.09738839 0.08180431 -0.26153985 -0.046779092 -0.031575892
-0.15728924 -0.14724106 0.16629435 0.15985097 -0.022878746 -0.2536004 0.16291381 -0.15512627
-0.1206687 -0.09439263 -0.17663625 0.13436738 0.20948854 -0.17758347 0.21698272 -0.0860147
-0.12797871 -0.0016817844 -0.111388765 0.1329999 0.1559754 -0.093819916 -0.00817512 0.016333444
0.029743602 0.027612854 0.03669474 -0.11395803 -0.06602598 -0.11461506 -0.2431544 0.114947855
-0.22968765 -0.07370586 0.12014712 -0.1731605 -0.084486365 0.16245964 -0.0223477 0.16717282
0.031321213 -0.06824803 0.1337499 0.14872879 0.025064677 -0.09679795 -0.22300193 0.06237056
-0.16086587 -0.24053863 -0.14289357 0.12161767 0.0042839493 0.1123533 0.079423785 -0.06272353
-0.039129227 -0.0043912483 -0.1114364 0.23165382 -0.07815887 0.039135877 -0.067239635 -0.0674681
0.029896837 -0.17615825 0.044735212 -0.061497964 -0.16119464 0.17169428 -0.094808556 0.117837474
-0.027114062 0.15125452 -0.1196292 -0.111693844 0.2971802 0.0013265865 -0.11906014 0.14312926
-0.05708068 0.04845848 -0.13644995 0.21509415 0.10146562 0.09384114 0.059218127 -0.11122831

fc2.weight f4 [128, 256]
00000000: 6316 41bd 467f 103e c032 38bc 0bde e6bd
00000010: 01a8 c03d af8c bc3d b1f4 c13d 686b 823c
00000020: 39f2 8f3d 39c4 7d3d 3e06 893d 80af 84bc
00000030: d99e c93d 0efb 90bd 6a47 75bc c8de 053d
00000040: e0bc 97bc 7f1d 9bbd e2d9 07bd e49e 263e
00000050: 83d8 47bc 8e30 723d dd47 333e 5d2d b03d
00000060: 7ac2 96be 0c99 fe3b 38bc 863e b69e adbc
00000070: c36b 6b3d 0ed9 dcbd 0417 153d 1927 8abd
00000080: bdf9 f5bd 695a c93d f226 13bf e4fc 91be
00000090: 7a0f 5ebe 225a 863d 4103 e93e bb94 a1be
000000a0: c51e d73c 8789 26bd 46ed 033e bb19 03bf
000000b0: f14a fabc b019 6a3d 3bcb ccbc e5fc 7e3d
000000c0: 3d33 13be 32fe c13c 2bac 1c3d f60d 8fbd
000000d0: 8656 d23d 69cb 403e e1a3 60be 521a 97bb
000000e0: 07ad a0ba 514a 963b 3281 493e b1b3 96be
000000f0: f58f 92bd fd6a 553d 1791 42bd d4c8 6e3d
00000100: c18a 20be d7a1 88bd 0dda 603d 7662 28bd
00000110: f0a3 ce3d 05ee d1bc 29cb b7bc 621d 98be
00000120: e8cb 1ebd 6e47 893e 9cbe 27be c73c 5c3d
00000130: e8f7 18be 15bf c6bc 4c91 9cbd 47fa 5abd
00000140: abf9 45be 02da dbbd 82e9 aabd 818c 5abe
00000150: d25a 5e3d 73cf a23d aa3a 4ebd 0aff 1bbd
00000160: cfec cabd 4588 00be 5fb8 82bd b7de 7bbe
00000170: a84a 1f3e cf8c 3fbe 2de2 49bd 990f 8abe
00000180: 980d 323a 47dc 59be 10fb ec3d 440c c8bd
00000190: 5d01 20bd 8375 d0be d360 07be 1877 873e
000001a0: 5084 b339 92de 8ebd b6dd e73d 9a73 d13d
000001b0: 0cf6 1dbd 4399 64be 8689 4b3e 6d85 1fbe
000001c0: 91c7 5b3b 9841 8f3d 9618 c9bc 66ef dbbd
000001d0: c028 d3bd 8b5b ecbd 6c97 cfbd 6e88 313e
000001e0: e3ac 79bb 917f bd3c 4f54 a63d 700c 1cbe
000001f0: e34b 34be 777f 113d 76c7 a7bd 8cf7 8cbb
00000200: d63f 693d e9c5 88bd 6179 823d a1aa 223e
00000210: 011b 553e ed19 c0bc 7921 8d3d d66e d1bd
00000220: 8fe5 cbbc ed02 21be c176 85be a074 d5bd
00000230: f0ac 963a 7b8c 19be 0451 eabe 2528 19be
00000240: 9d45 91be f9aa 3dbd 6fd1 09bd 891d 713d
00000250: 70d7 2dbd be2d 24be 1739 c4bd 12a5 37be
00000260: 133c 78bc 91da 953c 60bc c23c 02eb 83bd
00000270: 6abf dcbe c306 ef3d a750 8f3d 23a8 35be
00000280: 42c7 f43e 6434 49bd 7dd3 6b3d 42e1 d93d
00000290: 39d0 4bbf c0f8 543d b9ad 8c3c ed09 2abc
000002a0: ac54 8abd 77e7 d53d a814 873e 7dd0 833c
000002b0: 0a6f d03d c172 5c3b 07f3 ba38 f0d7 c83e
000002c0: 6679 e73b 4dfa df3d 26d3 c73c 854e a03d
000002d0: cdc1 34bd 2bfb 5d3e 8287 1f3e 4434 473c
000002e0: 4606 f53d a4f5 0abd a501 9abd 6968 80bc
000002f0: 3810 77be 4d63 673c 5923 b3bd 23a8 2fbd
00000300: 6e68 9bbe 4f1f 58be 945b 3a3e b03e 3ebd
00000310: 6ab9 01be 1810 0a3e 3c86 d8bd f057 b03d
00000320: a447 d7be 7eb0 3abe a6cf c73c 8561 1b3e
00000330: f654 cfbd 9d08 a0bb de60 d9bd 1907 cbbe
00000340: f1bf 68be f0b8 f23d 8a0f 313e b195 253d
00000350: 50c6 ee3d 489b aa3d a04e 083d 0cc0 26be
00000360: 116f 953e d6c7 4c3c 2c52 ecbd 0601 19bd
00000370: 4d91 8c3d 0d72 97be 0e3a 8fbd c5eb c9bd
00000380: 6f25 66bd dbaa c2be 36d3 a13d 25e5 ecbe
00000390: 380f 86bc 32dc 74bd 0da3 d4bc da24 113e
000003a0: 11ec abbe ef2a 56be 373f 5bbe 4eb1 e83d
000003b0: 46ed b9be 4a22 583e 5677 3abd 45ed 923c
000003c0: 5498 ab3d ae02 26be 6548 94be 2978 343d
000003d0: 14bd 323e 2001 a4be fc80 49bd 359f 0a3d
000003e0: 5002 7ebd c94b 763e 32cb 4a3e 046e 1e3e
000003f0: ab97 753d 28a5 f93c 5bf5 193e 6196 093e
-0.04714049 0.14111051 -0.0112425685 -0.1127282 0.09407044 0.09206521 0.09470499 0.015920356
0.07028622 0.06195471 0.06690644 -0.016196966 0.09844751 -0.07079135 -0.01497064 0.032683164
-0.01852268 -0.07573985 -0.033166774 0.1627155 -0.0121976165 0.059128337 0.17507882 0.08602402
-0.2944525 0.0077697095 0.26315475 -0.021193843 0.057475816 -0.107835874 0.036398903 -0.067457385
-0.120105244 0.098316975 -0.574813 -0.28513253 -0.21685591 0.0656016 0.45510295 -0.31558785
0.02625979 -0.0406585 0.12883481 -0.51211137 -0.030553313 0.057153404 -0.024999252 0.062252898
-0.14375015 0.02368078 0.03825013 -0.06985085 0.10270409 0.18827595 -0.21937515 -0.004611292
-0.0012258597 0.004586496 0.1967819 -0.2943397 -0.07156364 0.052103985 -0.04750165 0.058296993
-0.1567793 -0.066714935 0.05489545 -0.041109525 0.10089862 -0.025626192 -0.022435741 -0.29709917
-0.03876868 0.2681231 -0.16381305 0.0537689 -0.14938319 -0.024261037 -0.07644901 -0.05346134
-0.19333522 -0.10734941 -0.08345319 -0.2134266 0.05428583 0.07949724 -0.050348915 -0.03808502
-0.09908449 -0.12551983 -0.06382822 -0.24596678 0.15555823 -0.18706058 -0.049287964 -0.26965025
0.0006792187 -0.21275435 0.11571324 -0.097679645 -0.0390638 -0.40714654 -0.1322053 0.2645805
0.0003424012 -0.06976046 0.11321585 0.102271274 -0.038564727 -0.2232409 0.1987668 -0.15578242
0.00335357 0.06994933 -0.024547856 -0.10739021 -0.10310507 -0.11540898 -0.10136303 0.173372
-0.0038097433 0.023132117 0.08121549 -0.1523912 -0.17607073 0.03552195 -0.08192341 -0.004301971
0.056945644 -0.06678373 0.063708074 0.15885402 0.20811082 -0.023449862 0.0689115 -0.102262184
-0.024889736 -0.15723772 -0.26067165 -0.10422635 0.0011495631 -0.14994995 -0.45764935 -0.1495672
-0.28373423 -0.04630563 -0.033646997 0.058866058 -0.042441785 -0.16033074 -0.095812015 -0.17934063
-0.015151042 0.018292697 0.023771465 -0.064413086 -0.43114787 0.116712116 0.06997805 -0.1773992
0.47808272 -0.04912223 0.057574738 0.10638668 -0.796146 0.05199504 0.017172681 -0.010378343
-0.06754431 0.10444539 0.26382947 0.016090626 0.10177429 0.0033637735 8.9144385e-05 0.39227247
0.0070640324 0.10936413 0.024392676 0.078274764 -0.044130135 0.21677844 0.15579036 0.012158457
0.11964087 -0.033925667 -0.07519845 -0.015674787 -0.2412728 0.014122796 -0.087469764 -0.042884957
-0.3035311 -0.21105693 0.18198997 -0.046446502 -0.12668386 0.13482702 -0.10572478 0.08610523
-0.42046845 -0.18231389 0.024391007 0.1517392 -0.10123627 -0.0048838393 -0.10614179 -0.39653853
-0.2272947 0.1185168 0.17291084 0.04042596 0.11658919 0.08330399 0.033278108 -0.16284198
0.291863 0.0124988165 -0.115391105 -0.03735449 0.068636514 -0.295792 -0.06993495 -0.098594226
-0.056188043 -0.38020977 0.079016134 -0.46268573 -0.016364679 -0.059780307 -0.025956655 0.14174214
-0.33578542 -0.20914815 -0.21410833 0.11361943 -0.36313838 0.2110683 -0.045523964 0.017935405
0.08378664 -0.1621196 -0.28961483 0.044059906 0.1745494 -0.32032108 -0.049195275 0.033843238
-0.062013924 0.24052347 0.19804075 0.15471655 0.059959095 0.03047426 0.15035002 0.13436271

fc2.bias f4 [128]
00000000: d161 a6b9 9de4 323b c10d 29bd 25fe 9fbd
00000010: 6bf0 a73b 73a8 f53c f272 0cbc 81fc 23bc
00000020: 9c3e 9f3d ea33 013d c56a 913d cfb9 44be
00000030: a16a 933b e1e8 99bd 7c41 d6bd b5bb 9e3d
00000040: c198 803d dbe9 d4bc ee74 e53c d8af 02be
00000050: d378 d53d 30ee 53bb a406 8c3c c644 00bd
00000060: 9943 abbd b14f 85bd a283 18bd bccf 99bc
00000070: a6e9 00bd a846 b83d 75c7 e5bc 2e7e 8c3d
00000080: 68cf e4bc 3a3a 87bc 0450 a53d e7b4 be3d
00000090: b447 63ba 8744 a3bd 4333 023d ab88 923d
000000a0: 6ad1 533d 74cf c93c 37d0 a3bb c123 823d
000000b0: dd47 1cbd ad97 4abd b88b c7bd 3e95 88bc
000000c0: 0203 763d b722 ecbc 99e4 2fbd 36bc 523c
000000d0: 805e 4a3a 2d69 06bd 335f 12bd 5bd7 5ebd
000000e0: 8ab2 1ebe 7d96 b6bd 94f8 88bd 18c0 afbc
000000f0: b09a 17bb 3cef d63c b56a a4bc 5b18 a0bd
00000100: c721 0a3e 646a 3f3d 194a fbbb 664a edbc
00000110: 056e d9bc 868c 2dbc 00a0 8c3c c9fe e03c
00000120: 8991 19bd 9628 a5bd 6da3 23ba 183e fe3c
00000130: 135e 263c a9f6 223c 8777 933c dd0c bebd
00000140: ead9 e63d 0b74 4b3d 247e 4fbd afd1 dc3d
00000150: 209c 9bbc 8c35 babc 1d17 36bc 1912 8bbc
00000160: 83df 20bd 34aa f7bb 7fda 1dbc 25be 20bd
00000170: c44d c33b c984 94bc 4452 483d e59f 4a3d
00000180: 3e1b 04bc 366e 8f3a e8fd 66bd ac27 c63d
00000190: 76dc 063d 91cb dd3d 6bbc 21bd fd58 1bbb
000001a0: 3dda 723c 5889 7fbc fac3 8cbd e6ce 663b
000001b0: b9a6 413c cd50 9bbc 4d77 943c d074 683c
000001c0: 84c0 28bc e100 57bd c3fc e5bd 6d22 cb3c
000001d0: 0a8e 9c3d e6e8 0d3b d1f2 6c3d 0f2d 29bc
000001e0: c98b c1ba e02f 7f3c bcc0 313d d550 033e
000001f0: e419 8a3d 4054 293e ec90 8abd b1cd 20bd
-0.00031734866 0.0027296909 -0.041272882 -0.07812146 0.0051250956 0.02998755 -0.008572327 -0.010008932
0.07775614 0.03154365 0.07100443 -0.19211505 0.004498795 -0.07515121 -0.10461709 0.07750646
0.062791355 -0.025990417 0.028009858 -0.12762392 0.10423436 -0.0032338016 0.01709301 -0.031315587
-0.083625026 -0.065093406 -0.03723491 -0.018775813 -0.031472825 0.089978516 -0.02804921 0.06860004
-0.02793093 -0.016507257 0.080719024 0.09311848 -0.00086700474 -0.07972055 0.03178717 0.071549736
0.051713385 0.024635054 -0.0049991864 0.06354476 -0.03815447 -0.049461056 -0.09743446 -0.016672727
0.060061462 -0.028825147 -0.042942617 0.012862256 0.000771977 -0.032815147 -0.03573532 -0.054404598
-0.15497795 -0.08915422 -0.066880375 -0.021453902 -0.0023132972 0.026237123 -0.020070413 -0.078171454
0.13489448 0.04673232 -0.0076687452 -0.02896614 -0.02654172 -0.010592585 0.017166138 0.027465241
-0.03749231 -0.08064382 -0.0006242309 0.031035468 0.010154265 0.009946504 0.018001331 -0.09279797
0.112720326 0.049671214 -0.050657406 0.107821815 -0.018995345 -0.022730611 -0.011113909 -0.016976403
-0.039275657 -0.0075581316 -0.009634613 -0.039243836 0.005960198 -0.018129723 0.04890658 0.049468894
-0.008063136 0.001094288 -0.056394488 0.096755356 0.03292509 0.10829843 -0.03948633 -0.0023704164
0.01482254 -0.01559671 -0.06873317 0.0035218536 0.011819535 -0.018959427 0.018123293 0.0141880065
-0.010299806 -0.052491073 -0.11229851 0.024796689 0.07644279 0.002165371 0.057848755 -0.010325684
-0.0014766391 0.015575379 0.043396696 0.12823804 0.067432195 0.16536045 -0.06765923 -0.039258663

fc3.weight f4 [2, 128]
00000000: 4faa 10bf 014b e9bc 2e69 c43e dd47 bd3d
00000010: 6d5d a4be 218f 65bc 910b 483e 2e16 bbbc
00000020: 4031 96be f483 95bd d9b3 b5be 49b6 1d3f
00000030: b76c b63d 8595 173f 612f d33e 15ad 7cbd
00000040: 5a29 97be 9105 f1bc 7eff 1ebd 1c8e cc3e
00000050: 9a4b 52be 4f82 9dbe 9366 a8be 9111 553e
00000060: 737b 583e c2fa 163e 2013 843e 526b 4a3e
00000070: 0890 2c3f 2fb9 50bf 4c25 44bd bca6 38bc
00000080: 9e34 9d3e 2fab 9c3d 88c3 06be 968d 1bbe
00000090: b99f 073d fea7 133e a279 003e 4182 adbd
000000a0: 7d4b 9abc 78c8 e33d ce3c 1cbd 0dc0 7bbe
000000b0: 1f69 a23e 62ee 11bf 37c3 9bbe 7ae6 74be
000000c0: 744d ac3e 0773 c2bc ea74 ee3d 8eb6 113e
000000d0: 50be 693d 53c0 46bf 684e 0dbd 0b20 e13e
000000e0: d69e bfbc 3099 b63e ada4 483e f55e 06bf
000000f0: 3986 01be 2e12 a2bd 10c3 99be e45b 85bf
00000100: 482d 8fbe 3cc3 863d 2432 073f 11c5 dcbe
00000110: 93dc 3a3e fab7 da3e 30d3 d03c 5d5e 1fbf
00000120: 3262 9d3d 22a4 39bf f487 ce3d e46c cebe
00000130: aa92 603e eada 9bbe dd52 fb3d ea2e ac3e
00000140: d996 8f3d 95fb 72bc 201a 1cbf 7fbb 0abe
00000150: a00a c43d 4545 853e e2c9 fcbc d4ab ccbe
00000160: 8f3e 9f3e aa31 5f3e 76da 9bbd 8289 813e
00000170: 74a1 5b3c debc 993e 036e 1d3d fc88 8dbd
00000180: 348d 053d c699 02bf 3ba3 99bd 0547 16be
00000190: d6a4 8c3e 736d a3be a23a f2be fecf 3c3e
000001a0: f32d 2e3e 3620 b13e 5c05 0ebf 2652 94be
000001b0: d885 ff3e f3a3 413e f496 133e 9843 723e
000001c0: c0b2 893e 2f53 4b3c d97a 52be 3aef b4bd
000001d0: 55f0 f1be 4122 3bbe 7120 963d 1a5b e53d
000001e0: a10f b23c a4ac bbbe 62f1 f0bd ef24 fbbe
000001f0: 2c5e f03d 434e cfbe 3fc9 443d a610 973e
00000200: a765 113e fc1b d93e 611b d43e 4835 d7bd
00000210: 816e 21bf c44c 6bbe 5010 74bd 7a86 14bd
00000220: 0d0e 29be 1a32 ecbd 3cb7 a13d 6f6e 033f
00000230: 3f67 acbe bb33 cb3e f32a e3be f540 b2bd
00000240: f490 06bd 0351 eabd 1815 82be 4cfb 903e
00000250: da47 74bd 7976 443e f4a8 9dbe 92f0 403e
00000260: 0862 8cbe e064 47be a02e c03e fad3 d23e
00000270: ba4f 053d cc03 303e 3bc6 40be 4392 68be
00000280: ad8f aabe 415c abbe 8a7c 35be 34df 4c3e
00000290: 7e2b 7bbe d84f cebc b537 0ebe e19a 34be
000002a0: 76c0 03be 949b 05be 04b7 fdbe c5b5 bc3e
000002b0: acc2 a43e 9b55 0b3f 7efc 303e cfec 80be
000002c0: 7367 4e3e 720d c3bc 9777 4cbe a2a1 26be
000002d0: 71a8 273f 3043 043f 2f31 af3d 38c0 28be
000002e0: aea7 37bf 53d4 353e 3a8a 9fbe 8f15 b33e
000002f0: 4094 dfbd 77f0 b93d fbe5 753e 8863 c83c
00000300: 6e96 05bc 2ca2 3abe 5c49 953e 0ad3 993d
00000310: 694e 81be a989 843e 3804 25be ce36 723e
00000320: 1b9a 74be e001 8d3e 1636 ccbe f362 983d
00000330: aaa4 7e3e e427 813d cdf1 3fbe c65b 783e
00000340: 28b5 a03e 8e8d bcbd 79e7 72be 4eea 9e3d
00000350: d411 9dbd 3872 5fbe 90f2 fdbd f598 283e
00000360: e303 0dbe 2632 673d 9416 16be d188 723e
00000370: d311 88be b8a1 f73e e296 493f b0e4 ecbd
00000380: 8f09 1fbe ea69 8c3e d5f7 92be 4487 de3d
00000390: 136c 7abf 3bef b13e 6274 b23c 6343 2e3f
000003a0: ef83 e13d 2ca4 0abc b774 3d3e 71aa b93e
000003b0: f1f5 243f f8ba 9f3c d36c 663e b074 0e3e
000003c0: 5d56 2f3f 37f5 50be 6d76 5d3f 1df7 c9bd
000003d0: a8ad 3c3d d3c7 013e 3414 b8bc 4644 ecbe
000003e0: c75c 46be 3c84 93be 67ec 4a3d 6232 c23d
000003f0: 5c29 483e 0ada 333e 4b03 b7be 28b3 043f
-0.5650987 -0.028478147 0.38361496 0.092422225 -0.32102528 -0.014011175 0.19535662 -0.022837725
-0.2933445 -0.07300559 -0.35488775 0.6160627 0.089074545 0.59212524 0.41247085 -0.0616885
-0.29523736 -0.0294216 -0.038817875 0.3995217 -0.20536652 -0.3076348 -0.32890758 0.20807482
0.21140842 0.14744094 0.2579584 0.19767502 0.67407274 -0.8153257 -0.04788713 -0.011270221
0.30704206 0.07649838 -0.13160527 -0.1519073 0.033111308 0.14419553 0.12546399 -0.084721096
-0.018834824 0.11122221 -0.038143925 -0.2458498 0.31720826 -0.5700437 -0.30422375 -0.23916045
0.33652842 -0.02373649 0.11643393 0.14229795 0.05706626 -0.77637213 -0.034498602 0.4396976
-0.023391169 0.35663748 0.19594069 -0.5248864 -0.12648858 -0.07913624 -0.30031633 -1.0418668
-0.27964234 0.06580207 0.52810884 -0.431191 0.18248205 0.42718488 0.025491327 -0.6225336
0.07684745 -0.7251607 0.10084525 -0.40317452 0.21930948 -0.30440456 0.12271664 0.33629543
0.07011194 -0.01483049 -0.60977364 -0.13548087 0.09572339 0.2602941 -0.030857984 -0.39974844
0.31102416 0.21796289 -0.076100275 0.25300223 0.013405193 0.30026907 0.038434993 -0.06910893
0.032605365 -0.5101589 -0.07501837 -0.1467553 0.2746951 -0.3191944 -0.47310358 0.18438718
0.17009716 0.34594887 -0.5547693 -0.28968924 0.49906802 0.18910198 0.14413053 0.23658597
0.26894188 0.012409969 -0.20554675 -0.08834691 -0.4725367 -0.18274786 0.073304065 0.11199017
0.021735968 -0.36655152 -0.1176479 -0.49051616 0.11736712 -0.40489396 0.048043486 0.2950489
0.14198934 0.42404163 0.41427138 -0.105082095 -0.6305924 -0.22978503 -0.05958587 -0.03626106
-0.16509266 -0.115329936 0.07896277 0.51340383 -0.3367252 0.39687905 -0.44368705 -0.08703796
-0.03285308 -0.11441233 -0.25406718 0.28316724 -0.059638835 0.19185819 -0.30792964 0.1884177
-0.27418542 -0.19472075 0.37535572 0.4117735 0.032546736 0.17188948 -0.18825619 -0.22712044
-0.3331274 -0.33468822 -0.17723289 0.2000702 -0.2452831 -0.025184557 -0.13888438 -0.17637207
-0.12866387 -0.1304763 -0.49553692 0.3685743 0.32179773 0.544275 0.17283818 -0.2518067
0.2015665 -0.023810122 -0.19967495 -0.16272596 0.65491396 0.5166502 0.08554303 -0.16479576
-0.71740234 0.17756777 -0.31160146 0.34977385 -0.10916948 0.09079068 0.24013512 0.024461523
-0.008153541 -0.18225926 0.2915753 0.07510956 -0.25255135 0.25886276 -0.1611489 0.23653719
-0.23886912 0.27540493 -0.39885014 0.07440748 0.24867502 0.06306437 -0.18744583 0.24253759
0.3138821 -0.09206687 -0.23721112 0.07759534 -0.07669416 -0.21820915 -0.12399781 0.16464598
-0.13771014 0.05644431 -0.1465705 0.23685004 -0.265761 0.4836557 0.78745854 -0.11567056
-0.1553099 0.27424556 -0.28704706 0.108656436 -0.9782116 0.3475283 0.021784011 0.68071574
0.110114925 -0.008461993 0.18501554 0.3626285 0.64437777 0.019498333 0.2250245 0.139117
0.68491155 -0.20406042 0.8650883 -0.09861586 0.04606405 0.12673883 -0.022470571 -0.46145838
-0.19371329 -0.28811824 0.049541857 0.09482266 0.19547027 0.17563644 -0.357447 0.5183587

fc3.bias f4 [2]
00000000: 5465 30bc 3e13 b8bd
-0.010766346 -0.08988045
