actor_1_checkpoint_gpu.pth (torch_old, 159294 bytes, 6 tensors)

fc1.weight f4 [256, 24]
0.11050259 -0.017777648 0.025481986 0.16205561 -0.29969865 0.20866084 0.023060275 0.17009282
-0.0068313875 0.050515793 -0.0097306585 0.07725009 0.099584185 -0.08272287 -0.08122946 0.048802488
-0.0038361265 0.07743114 0.19232307 0.09873427 0.040579 -0.37835607 -0.02032582 -0.052833702
0.0046652053 -0.030413188 0.044798676 -0.056617178 -0.30305865 0.089820035 -0.019860433 0.026055546
0.19885355 -0.2223705 -0.12449804 -0.15403834 -0.014065393 -0.050011307 0.15693992 -0.15044175
0.22521041 -0.12298404 0.13571262 0.043778237 -0.4223617 0.06194413 -0.12571572 0.10139385
-0.11913612 0.123714186 -0.22074768 -0.12881479 0.24234721 -0.12964241 0.17881262 0.13212888
-0.060069583 -0.018970085 0.07211633 0.06304385 -0.14050384 0.025732756 0.07173639 0.1807291
-0.14403863 0.12783924 -0.05350915 0.0004026226 -0.29040202 -0.49679512 0.061487097 -0.07727794
0.059788313 -0.021204524 0.069059156 0.12622043 0.06654841 0.14031939 -0.18700878 0.18408199
-0.16493854 -0.11791179 -0.027332429 0.07248974 0.101081125 -0.10732104 -0.22121206 0.25582805
-0.14237253 0.0849062 0.062138893 -0.015779823 -0.012678958 0.03176486 -0.14015737 0.040434755
0.029237062 0.18007433 -0.12120215 -0.012014939 0.27811572 0.0062116277 0.080710955 0.13816203
-0.101026215 -0.0016134103 0.32784647 0.13177031 0.25435254 -0.022463404 0.19756435 0.27358332
0.28670684 0.07489714 0.11179808 0.30339518 0.3419658 0.22447617 -0.061451916 0.004076086
0.08586448 -0.17618579 0.13495143 -0.18427475 0.22002316 -0.0952 -0.26040924 -0.09872069
0.30088675 0.10903263 -0.2333451 0.22251534 0.30360082 0.16689035 0.02063594 0.3232802
0.28016096 0.060361534 -0.15094829 0.13982727 0.08548964 0.07354725 -0.13648255 0.38592485
0.011990324 0.06544594 0.10531943 0.047173973 0.3185411 0.28170016 -0.042260144 0.18063435
-0.07131373 0.06850164 -0.22558795 -0.123546936 -0.009654672 0.12164324 0.112207055 -0.05887449
-0.21698125 0.1037679 0.10855088 0.14212039 -0.13797009 0.20564826 -0.031114861 -0.03595056
-0.08678989 0.06979308 -0.07456915 0.038137887 0.10384872 -0.009683046 0.19167809 0.14979135
0.20178244 0.08461907 -0.15805297 0.03798976 -0.038982254 -0.1000273 -0.1926948 -0.16185388
-0.05461005 0.26035297 -0.16570136 -0.3570836 -0.04081731 -0.25057352 0.08380727 -0.27654403
-0.08683224 -0.11068004 0.031208491 -0.24140404 0.05717014 0.21222666 0.08311817 -0.24069037
0.02941413 -0.29913703 0.11650211 -0.10366478 0.060205925 0.18200807 -0.07366689 -0.030992007
0.034177177 -0.008005233 -0.09748294 0.13293728 -0.28328526 0.48075286 0.047746755 0.23939885
0.10660108 -0.19464457 -0.020054162 0.25120968 -0.09234572 0.3587855 -0.104927294 -0.07256126
0.038147762 -0.2734538 -0.054190822 0.14601578 0.294826 0.49633923 -0.048845682 -0.16114105
0.1238223 -0.24047127 -0.18051888 -0.03937041 -0.009176275 0.46751434 0.031395365 -0.25109553
-0.19961597 0.12888834 0.11668515 -0.020020772 -0.27345943 -0.034356184 -0.16091223 -0.15837765
-0.1303641 0.26554525 0.15017734 -0.12461615 0.021585844 0.03226663 -0.005302501 -0.1574944
00000000: 2f4f e23d 6ea2 91bc 99bf d03c e8f1 253e
00000010: 1a72 99be 30ab 553e e7e8 bc3c d02c 2e3e
00000020: d5d9 dfbb a6e9 4e3d 576d 1fbc 4c35 9e3d
00000030: cbf2 cb3d 9c6a a9bd a25b a6bd 1ee5 473d
00000040: 8667 7bbb 3894 9e3d 57f0 443e 3135 ca3d
00000050: 2a36 263d e3b7 c1be 5682 a6bc 2768 58bd
00000060: 94de 983b 1425 f9bc d17e 373d 6ae7 67bd
00000070: 812a 9bbe 91f3 b73d 59b2 a2bc 7172 d53c
00000080: 44a0 4b3e 18b5 63be d4f8 febd 3abc 1dbe
00000090: 8972 66bc a8d8 4cbd dcb4 203e 670d 1abe
000000a0: 8f9d 663e 0edf fbbd 40f8 0a3e cf50 333d
000000b0: cb3f d8be 21b9 7d3d 9fbb 00be 94a7 cf3d
000000c0: a3fd f3bd dd5d fd3d ae0b 62be 06e8 03be
000000d0: de29 783e fbc0 04be a81a 373e cb4c 073e
000000e0: 860b 76bd 2767 9bbc bab1 933d 221d 813d
000000f0: 3de0 0fbe 80cd d23c 87ea 923d 0d11 393e
00000100: dd7e 13be 4ae8 023e 692c 5bbd 1717 d339
00000110: 93af 94be ee5b febe e5d9 7b3d e643 9ebd
00000120: 97e4 743d 1cb5 adbc e36e 8d3d ee3f 013e
00000130: 884a 883d e3af 0f3e 3b7f 3fbe fd7f 3c3e
00000140: a6e5 28be bd7b f1bd 42e8 dfbc 8075 943d
00000150: 9f03 cf3d 22cb dbbd 6a85 62be e5fb 823e
00000160: 1bca 11be 4de3 ad3d 5a85 7e3d b044 81bc
00000170: 67bb 4fbc df1b 023d 6a85 0fbe ea9e 253d
00000180: 9082 ef3c 6865 383e d538 f8bd 4fda 44bc
00000190: 2f65 8e3e e98a cb3b c94b a53d 597a 0d3e
000001a0: d5e6 cebd 1179 d3ba 7edb a73e ccee 063e
000001b0: 7f3a 823e 2c05 b8bc 4f4e 4a3e 1d13 8c3e
000001c0: 3dcb 923e ac63 993d 64f6 e43d 9d56 9b3e
000001d0: 2416 af3e 15dd 653e 01b5 7bbd b090 853b
000001e0: b7d9 af3d 0c6a 34be b530 0a3e 85b2 3cbe
000001f0: c04d 613e 38f8 c2bd 5c54 85be 132e cabd
00000200: d40d 9a3e 804c df3d 05f2 6ebe 10db 633e
00000210: 9171 9b3e 4ee5 2a3e b40c a93c fb84 a53e
00000220: 4271 8f3e a83d 773d 3092 1abe e12e 0f3e
00000230: 3115 af3d f19f 963d 15c2 0bbe f197 c53e
00000240: 1073 443c 8508 863d b7b1 d73d 7f39 413d
00000250: d217 a33e 013b 903e f918 2dbd 36f8 383e
00000260: ef0c 92bd 964a 8c3d 8700 67be 2d06 fdbd
00000270: a12e 1ebc 1720 f93d d0cc e53d 6126 71bd
00000280: 5530 5ebe 4484 d43d ec4f de3d 0288 113e
00000290: 0848 0dbe 7595 523e 98e4 febc e540 13bd
000002a0: e6be b1bd adef 8e3d b6b7 98bd 7936 1c3d
000002b0: a3ae d43d a3a5 1ebc 4347 443e e762 193e
000002c0: 0ea0 4e3e c34c ad3d a3d8 21be 279b 1b3d
000002d0: dbab 1fbd 1ddb ccbd c951 45be 06bd 25be
000002e0: caae 5fbd fc4c 853e 9ead 29be a9d3 b6be
000002f0: 0d30 27bd 2c4b 80be 25a3 ab3d 2e97 8dbe
00000300: 1ad5 b1bd 38ac e2bd f3a8 ff3c 9f32 77be
00000310: 3d2b 6a3d f251 593e dc39 aa3d 8977 76be
00000320: e7f5 f03c 7d28 99be a998 ee3d 334e d4bd
00000330: 7d9a 763d 5360 3a3e abde 96bd f3e2 fdbc
00000340: 5efd 0b3d 6128 03bc 23a5 c7bd b620 083e
00000350: c40a 91be 3d25 f63e 1a92 433d f924 753e
00000360: ab51 da3d e850 47be a048 a4bc 8e9e 803e
00000370: c11f bdbd bcb2 b73e 1fe4 d6bd ff9a 94bd
00000380: d440 1c3d 2302 8cbe 32f7 5dbd 2985 153e
00000390: 6ff3 963e 2d20 fe3e 6912 48bd 2902 25be
000003a0: 8c96 fd3d 1a3e 76be f1d9 38be de42 21bd
000003b0: 1658 16bc 0a5e ef3e 6d98 003d 988f 80be
000003c0: 2168 4cbe 4efb 033e a0f8 ee3d 9a02 a4bc
000003d0: e002 8cbe 12b9 0cbd 2dc6 24be c02d 22be
000003e0: 2b7e 05be 8cf5 873e 17c8 193e c136 ffbd
000003f0: ccd4 b03c 042a 043d 9ac0 adbb 3646 21be

fc1.bias f4 [256]
0.14173101 0.117378406 -0.08453087 0.21559007 -0.2610936 -0.07998471 0.092747375 0.05101513
0.06479195 0.2043751 0.087718144 -0.120523825 0.10436288 -0.14279105 0.057830576 -0.09839967
-0.14912698 -0.049463667 -0.06832987 -0.06963517 -0.179158 0.12824367 0.0017471169 0.28851584
-0.03702575 -0.0022546607 -0.16535772 0.009704158 0.15382074 0.052144364 -0.052022807 -0.049429953
-0.08034717 -0.10879382 0.0077229016 0.15991624 -0.11258143 0.00949151 0.04255723 -0.22332026
-0.2048412 0.022997595 0.07225827 -0.033141375 -0.103014864 -0.029446218 0.21637318 -0.042371336
0.022117082 0.0122705875 -0.068858005 -0.16585115 0.041511796 -0.13299774 -0.05589396 0.13029386
0.011312564 0.06340266 0.21312097 -0.16345263 0.19250202 0.16228363 -0.14178003 0.06465125
-0.10706962 -0.2293471 -0.19095731 0.01975064 -0.18237594 0.13684699 -0.01700019 -0.17408893
-0.17617701 -0.026261754 -0.032528613 -0.021395005 -0.036832117 -0.19793977 0.20236026 0.1571111
-0.16118866 -0.11528751 -0.016710017 -0.10109192 -0.022317043 -0.13032863 0.055366073 -0.16734019
-0.12215676 -0.04928029 -0.0024563519 -0.118902124 -0.16183071 0.13386282 -0.11579108 0.2361204
0.13566177 0.015972469 0.039955378 -0.2281445 0.16174686 0.15673454 -0.16746557 0.25389192
-0.07586075 0.0045713526 0.03461935 0.07437823 -0.15779105 -0.19905344 0.02807442 -0.09143667
-0.040935334 -0.28312662 0.008872553 -0.12596413 -0.16957703 0.20002714 0.2488934 0.10751083
-0.064057514 0.19727467 -0.1562843 0.12081186 0.06429842 -0.14178695 0.24198258 -0.004143627
0.18813136 0.23588221 0.06512639 -0.117835954 0.05202667 0.032200284 -0.09129881 0.14779961
-0.021310309 0.054242678 0.15686071 0.17704475 0.025987647 0.055784706 -0.09404892 0.09923077
0.043337986 0.049949337 -0.03382637 -0.16818999 -0.14326912 0.033340525 0.20664087 -0.13448545
0.19221987 0.14067163 0.10338697 0.09070404 -0.013771831 0.27541474 0.057468947 -0.098571
-0.04015261 -0.16076602 -0.14333087 0.13555129 0.02568945 -0.26496086 -0.14757231 -0.04662888
-0.1459324 -0.20883328 0.10433946 0.1355703 -0.069987856 -0.31690338 0.1966976 -0.24362601
-0.0487862 -0.18409912 -0.20897903 0.15366465 0.19440433 -0.1418831 0.25968698 -0.11258027
-0.13652751 -0.05934809 -0.029084025 0.064928025 0.13550697 -0.16607353 -0.048143916 0.08163159
0.048042316 -0.07500121 0.009537016 -0.111660734 0.07001786 -0.18522513 -0.2460864 0.11324718
-0.3271213 -0.04339261 0.0879826 -0.107534885 -0.06956691 0.0893735 0.066642836 0.1557771
-0.008908553 -0.06432699 0.1955676 0.10297623 -0.018483138 -0.069370784 -0.22905728 0.051842537
-0.061164204 -0.22756727 -0.14558186 0.07751676 -0.03159495 0.02617141 0.0641308 -0.099861495
-0.048574034 -0.11688735 -0.10648487 0.15159112 0.038073815 0.023086796 -0.113895066 -0.09442876
0.028581245 -0.1688239 0.036035713 -0.0626419 -0.12997971 0.19197412 -0.113760464 0.06577905
-0.052431125 0.10089742 -0.18584323 -0.15349825 0.23803782 -0.030610153 -0.054177426 0.14075042
-0.019499667 0.029685669 -0.092300326 0.25715405 0.09244599 0.16340882 -0.025089415 -0.09412131
00000000: ef21 113e 1764 f03d 851e adbd a5c3 5c3e
00000010: 0fae 85be 06cf a3bd 56f2 bd3d 3ef5 503d
00000020: a4b1 843d b547 513e 92a5 b33d 32d5 f6bd
00000030: 35bc d53d d137 12be c1df 6c3d c485 c9bd
00000040: beb4 18be 6a9a 4abd 88f0 8bbd e29c 8ebd
00000050: 3275 37be 4f52 033e 84ff e43a 59b8 933e
00000060: 50a8 17bd eec2 13bb 8953 29be 30fe 1e3c
00000070: 2f83 1d3e 5495 553d de15 55bd 1077 4abd
00000080: 0f8d a4bd 4bcf debd 6510 fd3b 15c1 233e
00000090: 1891 e6bd 4782 1b3c 7d50 2e3d 11ae 64be
000000a0: e4c1 51be 7465 bc3c 25fc 933d 40bf 07bd
000000b0: 75f9 d2bd 3239 f1bc ee90 5d3e 918d 2dbd
000000c0: e22e b53c 930a 493c 6d05 8dbd e2d4 29be
000000d0: 4608 2a3d 8f30 08be 11f1 64bd c16b 053e
000000e0: 5558 393c 41d9 813d 623c 5a3e 2060 27be
000000f0: 401f 453e ae2d 263e c92e 11be e067 843d
00000100: 5147 dbbd f7d9 6abe 508a 43be 18cc a13c
00000110: c2c0 3abe 9e21 0c3e fc43 8bbc 5e44 32be
00000120: bf67 34be e422 d7bc b93c 05bd 9444 afbc
00000130: 46dd 16bd b9b0 4abe 8737 4f3e bbe1 203e
00000140: a40e 25be dc1b ecbd 72e3 88bc 4809 cfbd
00000150: 3bd2 b6bc de74 05be 89c7 623d 3a5b 2bbe
00000160: 532d fabd 21da 49bd bffa 20bb f582 f3bd
00000170: f3b6 25be 5613 093e e023 edbd 8cc9 713e
00000180: ebea 0a3e b2d8 823c 40a8 233d b69e 69be
00000190: f8a0 253e 057f 203e 187c 2bbe 1ffe 813e
000001a0: e25c 9bbd 49cb 953b 05cd 0d3d 9d53 983d
000001b0: fa93 21be aad4 4bbe 53fc e53c 2643 bbbd
000001c0: cfab 27bd f9f5 90be 2f5e 113c befc 00be
000001d0: 9aa5 2dbe ead3 4c3e e9dd 7e3e a32e dc3d
000001e0: 9630 83bd 5f02 4a3e fe08 20be 356c f73d
000001f0: e4ae 833d 9930 11be 48ca 773e 43c7 87bb
00000200: 82a5 403e 1b8b 713e fc60 853d fa53 f1bd
00000210: eb19 553d 72e4 033d dffa babd c858 173e
00000220: f592 aebc 922d 5e3d 18a0 203e 384b 353e
00000230: 0ce4 d43c 817e 643d b89c c0bd 8039 cb3d
00000240: 2c83 313d ad97 4c3d 858d 0abd ff39 2cbe
00000250: 24b5 12be 1390 083d aa99 533e 8eb6 09be
00000260: 49d5 443e 390c 103e 8cbc d33d 0ac3 b93d
00000270: 3fa3 61bc 2903 8d3e 8f64 6b3d 98df c9bd
00000280: 1077 24bd d99f 24be 54c5 12be f5cd 0a3e
00000290: ae72 d23c f3a8 87be 321d 17be edfd 3ebd
000002a0: 4e6f 15be 64d8 55be edaf d53d f1d2 0a3e
000002b0: cb55 8fbd 2941 a2be 186b 493e 1979 79be
000002c0: 0ad4 47bd 7b84 3cbe 99fe 55be 445a 1d3e
000002d0: ee11 473e ce49 11be b1f5 843e 7c90 e6bd
000002e0: decd 0bbe fc16 73bd 9f41 eebc fcf8 843d
000002f0: 57c2 0a3e 2e0f 2abe 8e32 45bd 772e a73d
00000300: 05c8 443d 3c9a 99bd 2541 1c3c 62ae e4bd
00000310: 8665 8f3d a8ab 3dbe 13fe 7bbe 23ee e73d
00000320: 717c a7be 73bc 31bd 3930 b43d 403b dcbd
00000330: 1979 8ebd 7409 b73d 0a7c 883d 0884 1f3e
00000340: 2ef5 11bc debd 83bd df42 483e 34e5 d23d
00000350: f369 97bc 4512 8ebd fe8d 6abe d758 543d
00000360: 5187 7abd 6507 69be 6913 15be 1bc1 9e3d
00000370: b569 01bd 6d65 d63c 0257 833d 2f84 ccbd
00000380: 91f5 46bd a362 efbd bd14 dabd b43a 1b3e
00000390: 4af3 1b3d 8520 bd3c d141 e9bd de63 c1bd
000003a0: 3723 ea3c 2ce0 2cbe 2f9a 133d 654a 80bd
000003b0: 6719 05be dd94 443e 3ffb e8bd 2bb7 863d
000003c0: 05c2 56bd 4ea3 ce3d b04d 3ebe a52e 1dbe
000003d0: 30c0 733e 25c2 fabc 26e9 5dbd e120 103e
000003e0: c4bd 9fbc 5c2f f33c f407 bdbd b2a9 833e
000003f0: 5354 bd3d a454 273e 5188 cdbc acc2 c0bd

fc2.weight f4 [128, 256]
-0.07249134 0.32727963 -0.018597087 -0.06939818 0.0038476791 0.052402977 0.13654332 0.03320046
0.2120114 -0.09944142 -0.034698654 -0.06689128 0.07828595 -0.06868673 -0.04978685 -0.08988994
-0.0832985 0.086979784 -0.078071296 0.1789034 0.042502105 0.07243441 0.2839745 0.06364343
0.16478321 -0.052775323 0.24166691 -0.013042096 0.14042443 0.043996736 0.11396983 -0.02085133
-0.17898418 -0.1041488 -0.5480993 -0.4243469 -0.26520237 0.2224775 0.4660953 -0.3707906
0.07396478 0.041246645 0.16957866 -0.5844061 -0.02187351 0.08775936 0.009824762 -0.026194869
-0.13627253 -0.15474315 0.009748642 -0.08617602 0.2235816 0.10869763 -0.104151726 0.1563715
-0.045275677 -0.19925468 0.24287818 0.032922316 -0.13109735 0.1639675 -0.014546436 0.07210018
-0.07958137 -0.14806975 -0.12946856 -0.026944686 -0.10728656 -0.052120116 -0.021444758 -0.35009533
0.04023638 0.32306758 0.055276446 0.06368469 0.055156525 -0.24806257 -0.008856359 0.057756726
-0.09437071 -0.072783425 -0.23120743 -0.40774068 0.10090349 0.09120172 -0.07185943 -0.37906286
0.043297764 -0.079101406 -0.03750341 -0.31691498 0.043457977 -0.590474 0.033076994 -0.3273108
0.005212634 -0.43237022 0.022636589 0.013652194 -0.12898357 -0.0971321 0.09203732 -0.13617729
0.015464213 0.08780944 -0.05046655 -0.052976392 0.015507889 -0.07019317 0.2353693 -0.18257302
-0.10072029 -0.12567343 -0.21198681 0.17616615 0.091161124 -0.083872534 -0.012534332 -0.30249867
-0.18774442 -0.10208431 0.014739701 -0.0028194222 0.12580453 0.086985834 -0.15909179 0.25791383
0.042749155 0.054751534 -0.11610374 0.086883694 0.1754035 -0.08408277 -0.0012179618 -0.0729161
0.054003637 -0.28569674 -0.46868157 -0.16744298 -0.12583159 -0.06790028 -0.49880847 -0.16668995
-0.13154057 -0.17618978 0.05826056 0.0687054 0.0033495212 -0.19577244 -0.18108143 -0.046034038
-0.053097688 0.04738062 0.13793443 0.008379862 -0.3462102 0.15992525 -0.13543902 -0.21392268
0.28514203 0.013314893 -0.15525545 0.013524137 -0.42750147 0.086509645 0.05018008 -0.15188052
-0.03924031 0.15366612 0.2159733 -0.16435273 0.039560724 0.023715045 -0.051947005 0.24610879
-0.03589226 0.08155269 -0.03430816 0.0026866472 -0.0043680463 0.17615516 0.1923523 0.0019342225
0.17981918 -0.14474738 -0.06928811 -0.037955217 -0.43783545 -0.03859524 -0.104717754 -0.0031817404
-0.17543072 -0.14438255 0.09512862 -0.1434953 -0.11940098 0.20611915 -0.13108929 0.20691878
0.07253176 -0.07645636 -0.015607988 0.075538784 -0.09915811 0.10854566 -0.07275553 -0.064448796
-0.07608154 0.33242708 0.020836337 0.16498351 0.15034331 0.087365635 0.12953769 -0.13800131
0.23159458 0.04790802 -0.3055767 0.040250473 0.04317169 0.015613068 -0.033080116 -0.10223694
0.093907245 -0.42906088 0.14049649 -0.44844964 -0.23470971 0.026259823 -0.36002472 0.13143581
0.22763185 0.05674571 0.09351872 0.23066337 -0.25128213 0.12420502 -0.03440837 0.393743
0.20509553 0.020002995 -0.1787585 0.030570379 0.14227578 -0.38687167 0.053767134 0.035848446
-0.23210216 0.24667323 0.112828515 -0.040755577 0.04041803 0.05477445 -0.313531 -0.00368322
00000000: 5776 94bd 3291 a73e eb58 98bc a220 8ebd
00000010: 5829 7c3b 81a4 563d 03d2 0b3e 35fd 073d
00000020: 8419 593e f1a7 cbbd 2d20 0ebd 4cfe 88bd
00000030: 6254 a03d a1ab 8cbd 4ced 4bbd 3818 b8bd
00000040: 6798 aabd 7522 b23d d8e3 9fbd 7432 373e
00000050: b016 2e3d 7e58 943d 1b65 913e 7d57 823d
00000060: eebc 283e f02a 58bd 8877 773e 84ae 55bc
00000070: 6ccb 0f3e ec35 343d 0469 e93d 69d0 aabc
00000080: a147 37be f74b d5bd 3c50 0cbf ff43 d9be
00000090: 9bc8 87be 24d1 633e 0ba4 ee3e 44d8 bdbe
000000a0: d97a 973d 3ef2 283d 07a6 2d3e a39b 15bf
000000b0: 1330 b3bc 2ebb b33d 0af8 203c 9f96 d6bc
000000c0: 078b 0bbe fd74 1ebe c5b8 1f3c 0e7d b0bd
000000d0: 93f2 643e dd9c de3d 804d d5bd da1f 203e
000000e0: fd72 39bd 6b09 4cbe 0fb5 783e 8dd9 063d
000000f0: 623e 06be 19e7 273e 2d54 6ebc 42a9 933d
00000100: 8ffb a2bd 999f 17be 6893 04be 1abb dcbc
00000110: 0eb9 dbbd e77b 55bd ebac afbc b23f b3be
00000120: e7ce 243d 1d69 a53e 8e69 623d 1e6d 823d
00000130: cfeb 613d 1d04 7ebe 431a 11bc 5192 6c3d
00000140: 6e45 c1bd 7a0f 95bd a4c1 6cbe 63c3 d0be
00000150: 7da6 ce3d f8c7 ba3d 092b 93bd 8714 c2be
00000160: ff58 313d ebff a1bd 2d9d 19bd ae42 a2be
00000170: fe00 323d 4e29 17bf be7b 073d 4895 a7be
00000180: bece aa3b a15f ddbe 5e70 b93c 74ad 5f3c
00000190: 4514 04be 32ed c6bd 107e bc3d 0f72 0bbe
000001a0: 9c5d 7d3c 70d5 b33d 03b6 4ebd c6fd 58bd
000001b0: cd14 7e3c 70c1 8fbd a604 713e 6cf4 3abe
000001c0: 7046 cebd 89b0 00be 1213 59be e664 343e
000001d0: afb2 ba3d 5dc5 abbd cd5c 4dbc 1be1 9abe
000001e0: 1340 40be 9411 d1bd c97e 713c 0ec6 38bb
000001f0: e7d2 003e a125 b23d f5e8 22be 480d 843e
00000200: bd19 2f3d 2543 603d ccc7 edbd 14f0 b13d
00000210: fa9c 333e 9633 acbd 04a4 9fba 0955 95bd
00000220: eb32 5d3d d846 92be 08f7 efbe 2c76 2bbe
00000230: ffd9 00be 4d0f 8bbd d363 ffbe c5b0 2abe
00000240: 92b2 06be 186b 34be a0a2 6e3d 6bb5 8c3d
00000250: a483 5b3b 9278 48be 696d 39be 308e 3cbd
00000260: f67c 59bd 2e12 423d af3e 0d3e b04b 093c
00000270: 7742 b1be 72c3 233e 87b0 0abe 8c0e 5bbe
00000280: 23fe 913e b526 5a3c 49fb 1ebe 5894 5d3c
00000290: 79e1 dabe f82b b13d a189 4d3d 9186 1bbe
000002a0: 73ba 20bd a75a 1d3e 1b28 5d3e 154c 28be
000002b0: 6d0a 223d 0e46 c23c 62c6 54bd f103 7c3e
000002c0: c303 13bd 1905 a73d b786 0cbd 7612 303b
000002d0: d421 8fbb 0562 343e 00f8 443e bd85 fd3a
000002e0: 8522 383e a838 14be ede6 8dbd ee76 1bbd
000002f0: f82b e0be 0b16 1ebd 4376 d6bd bf84 50bb
00000300: 1ca4 33be 05d9 13be cbd2 c23d 6ff0 12be
00000310: 8088 f4bd e610 533e 453c 06be 84e2 533e
00000320: 888b 943d 2795 9cbd a6b8 7fbc 14b4 9a3d
00000330: 6813 cbbd 304d de3d da00 95bd bbfd 83bd
00000340: a3d0 9bbd e233 aa3e f7b0 aa3c 70f1 283e
00000350: 99f3 193e c1ec b23d 87a5 043e 3750 0dbe
00000360: 2127 6d3e 333b 443d 8d74 9cbe aedd 243d
00000370: ccd4 303d f4cd 7f3c 047f 07bd 9a61 d1bd
00000380: 7152 c03d dead dbbe 50de 0f3e 319b e5be
00000390: be57 70be d71e d73c 2955 b8be 1c97 063e
000003a0: 5318 693e 316e 683d be86 bf3d 0533 6c3e
000003b0: 0da8 80be 345f fe3d caef 0cbd af98 c93e
000003c0: 9004 523e 52dd a33c 780c 37be bb6e fa3c
000003d0: beb0 113e 0b14 c6be ed3a 5c3d d2d5 123d
000003e0: 30ac 6dbe e897 7c3e a312 e73d 52ef 26bd
000003f0: 608d 253d 2c5b 603d 2387 a0be 2d62 71bb

fc2.bias f4 [128]
-0.044804994 0.0065074414 -0.025371784 -0.042606194 0.010395357 0.014269954 0.017831951 -0.011995196
-0.012537078 -0.011157912 0.08571825 -0.18403482 0.061051555 -0.037233114 -0.051670637 0.054024916
0.034970023 -0.019577703 0.011711316 -0.05493072 0.09858891 -0.015963057 0.029448882 -0.002058494
-0.04494726 -0.0165008 -0.029413309 -0.017056176 0.029631356 0.05433007 0.020499287 0.020155026
-0.051053304 -0.030658139 0.059651226 0.07079668 0.03790285 -0.026331142 0.05055832 0.04652022
0.0886281 0.06418949 -0.06394825 0.013658919 -0.070958294 -0.025671588 -0.11845723 -0.03633184
0.11061563 -0.028383609 0.005558805 0.012948178 -0.038081005 -0.13046901 -0.035733797 0.02120434
-0.12518722 -0.07198767 -0.029719166 -0.03169885 -0.034008708 -0.0401192 -0.04145558 -0.013200734
0.12703998 -0.007078052 0.02573243 -0.06739204 -0.0079575 0.056193635 0.010236043 -0.00838756
-0.013516007 -0.057636503 0.058913402 0.015038564 0.036863245 -0.0029922286 0.09419579 -0.12165666
0.08917052 0.04168222 -0.03422864 0.054779567 0.049675982 -0.046725515 -0.013907541 -0.023209648
0.047015138 -0.01922038 -0.029246686 -0.05735101 -0.0059716413 0.02331732 0.04856936 0.032098543
0.027953917 -0.052019317 -0.029938484 0.037081063 0.04631631 0.054818746 -0.069775246 0.033366404
-0.030643318 -0.019806204 -0.0748969 -0.029725442 -0.03266471 -0.013012634 0.016546747 -0.02069242
-0.0574424 -0.082745366 -0.1812189 -0.0011151384 0.031925026 -0.01658441 0.057649855 0.0443649
0.051813204 0.047130164 -0.012753077 0.00508997 0.08225664 0.12327339 -0.038927574 0.021546105
00000000: 7185 37bd 603c d53b 7dd8 cfbc d583 2ebd
00000010: 4a51 2a3c 86cc 693c 5014 923c 8087 44bc
00000020: 5168 4dbc adcf 36bc 0d8d af3d a073 3cbe
00000030: 3211 7a3d c081 18bd 97a4 53bd 3b49 5d3d
00000040: ba3c 0f3d 6b61 a0bc d2e0 3f3c 09ff 60bd
00000050: fce8 c93d f5c4 82bc c83e f13c cce7 06bb
00000060: 9e1a 38bd b02c 87bc 2ef4 f0bc 65b9 8bbc
00000070: 75bd f23c 3589 5e3d 1fee a73c 271c a53c
00000080: 451d 51bd c726 fbbc d854 743d dafd 903d
00000090: 0540 1b3d 68b4 d7bc 3e16 4f3d fc8b 3e3d
000000a0: a682 b53d c875 833d 4df7 82bd a9c9 5f3c
000000b0: 9552 91bd 394d d2bc b499 f2bd b2d0 14bd
000000c0: 738a e23d be84 e8bc a326 b63b 9824 543c
000000d0: d4fa 1bbd ab99 05be 9a5d 12bd b9b4 ad3c
000000e0: 1431 00be 466e 93bd 9c75 f3bc a7d6 01bd
000000f0: b74c 0bbd 0854 24bd 54cd 29bd e447 58bc
00000100: c516 023e 01ef e7bb d1cc d23c d604 8abd
00000110: 2d60 02bc 4c2b 663d 13b5 273c fa6b 09bc
00000120: 3e72 5dbc 4114 6cbd 2e4f 713d 4f64 763c
00000130: eafd 163d 4419 44bb b9e9 c03d 2127 f9bd
00000140: 099f b63d faba 2a3d 5533 0cbd 8a60 603d
00000150: 0b79 4b3d 4163 3fbd 74dc 63bc 2922 bebc
00000160: f292 403d 0f74 9dbc bf96 efbc e5e8 6abd
00000170: c2ad c3bb f703 bf3c aaf0 463d c379 033d
00000180: 9dff e43c 3512 55bd 8d41 f5bc 50e2 173d
00000190: 2cb6 3d3d 9f89 603d 53e6 8ebd 36ab 083d
000001a0: b207 fbbc 9f40 a2bc 8c63 99bd c582 f3bc
000001b0: 6ecb 05bd f132 55bc 0b8d 873c 2683 a9bc
000001c0: b948 6bbd 6776 a9bd 7391 39be d629 92ba
000001d0: d1c3 023d 07dc 87bc 4122 6c3d f8b7 353d
000001e0: 153a 543d 8f0b 413d 48f2 50bc c3c9 a63b
000001f0: 2b76 a83d c276 fc3d 8572 1fbd 7581 b03c

fc3.weight f4 [2, 128]
-0.59909546 -0.105071515 0.36847147 0.12070994 -0.31337926 -0.07965815 0.20959438 -0.02090139
-0.39821064 -0.015125749 -0.16094209 0.46290368 0.0034741727 0.5495098 0.046007026 -0.04676248
-0.3517334 -0.0055775153 -0.005069593 0.16218343 -0.19699971 -0.34924033 -0.16362166 0.0892469
0.21675523 0.15844922 0.38561398 0.17591493 0.50655794 -0.74878925 0.002756574 -0.03988876
0.40035868 -0.03982971 -0.13981679 -0.14945938 -0.01776951 0.12088453 0.0114619555 -0.011947816
-0.01781771 0.051526517 -0.033115137 -0.23031746 0.30329624 -0.29126316 -0.2941795 -0.30012563
0.23924455 -0.00784215 0.14303087 0.11571929 0.072223045 -0.6323023 -0.03449954 0.21213907
-0.14210498 0.33026552 0.035798665 -0.4168529 -0.0842128 -0.06827204 -0.18899694 -0.5771664
-0.23360857 0.02513464 0.5372003 -0.29735643 0.033103246 0.39937 0.039294887 -0.55876666
0.06626906 -0.65261424 0.090322666 -0.34360448 0.2103114 -0.28639755 0.18068182 0.37504306
0.13828057 -0.012286683 -0.49343148 -0.13466245 0.13290454 0.40387404 -0.012947313 -0.6959408
0.16558395 0.22032303 -0.029517313 0.25106767 0.031127743 0.11283254 0.12116461 -0.04826413
0.0049802833 -0.32644308 -0.062998265 -0.6549383 0.09816892 -0.34410024 -0.5468785 0.11897778
0.06621175 0.2921043 -0.5655397 -0.19503231 0.2525049 0.21248282 0.09980928 0.21724416
0.43785203 0.011057827 -0.23251367 -0.043022156 -0.3541926 -0.14679901 0.055526726 0.06839473
0.010556615 -0.06521659 -0.16020434 -0.61161226 0.15603465 -0.28145677 0.06327737 0.12790853
0.19568296 0.34257105 0.41299796 -0.0929355 -0.49205843 -0.30426383 0.08795576 -0.03531734
-0.12338215 -0.064805135 0.13813992 0.54505914 -0.13949761 0.15029037 -0.39970785 -0.08131933
0.09508787 -0.11590052 -0.26647213 0.27379566 0.0065079825 0.1422766 -0.1763716 0.18251665
-0.4017166 -0.28915673 0.54094297 0.61993337 0.07203961 0.1703185 -0.14644796 -0.29757336
-0.5790304 -0.23348404 -0.20318538 0.32044315 -0.270315 -0.07250378 -0.18454003 -0.060338598
-0.05943126 -0.08542546 -0.57909125 0.35940653 0.33994332 0.5384539 0.13028023 -0.2270138
0.1724152 -0.011169439 -0.17584404 -0.25290522 0.5789994 0.5556293 0.08554303 -0.021237189
-0.74097985 0.28604802 -0.18947062 0.23287117 -0.04662052 0.062612444 0.16995698 0.03893629
-0.03490836 -0.28660032 0.41088077 0.000736439 -0.20909855 0.24361522 -0.15621082 0.20747332
-0.2057316 0.13074063 -0.20822869 0.058067814 0.24852082 0.023373349 -0.20334867 0.36555484
0.41686064 -0.07663661 -0.035958722 0.10765814 -0.13726547 -0.1009667 -0.124426976 0.3673083
-0.015711114 0.07329811 -0.09132637 0.2396598 -0.16345029 0.31662142 0.50764674 -0.09794099
-0.09331053 0.19845207 -0.31425577 0.49699986 -0.4443185 0.12950614 -0.29822472 0.6400135
0.0933154 0.043916106 0.5830017 0.3588759 0.5165695 0.017800327 0.24467115 0.111839436
0.6719905 -0.35299706 1.1029118 -0.08495161 -0.025390632 -0.09993916 -0.04584589 -0.11576536
-0.20020509 -0.28059557 0.017304456 0.3234773 0.1821082 0.21453746 -0.26718426 0.37105256
00000000: 525e 19bf bc2f d7bd 4ba8 bc3e c636 f73d
00000010: 3f73 a0be d023 a3bd e99f 563e 6439 abbc
00000020: 44e2 cbbe fdd1 77bc 01ce 24be b601 ed3e
00000030: f2ae 633b adac 0c3f dd71 3c3d 048a 3fbd
00000040: 6616 b4be 97c3 b6bb d41e a6bb 6a13 263e
00000050: 4bba 49be a1cf b2be 708c 27be 14c7 b63d
00000060: 15f5 5d3e 8340 223e 326f c53e 0b23 343e
00000070: c8ad 013f a7b0 3fbf a3a7 343b 6562 23bd
00000080: d0fb cc3e 7a24 23bd 222c 0fbe e10b 19be
00000090: 5d91 91bc 4f92 f73d edca 3b3c c6c0 43bc
000000a0: 72f6 91bc 780d 533d bda3 07bd 57d8 6bbe
000000b0: a549 9b3e 7220 95be b29e 96be 11aa 99be
000000c0: 86fc 743e 5c7c 00bc af76 123e 3cfe ec3d
000000d0: ade9 933d 90de 21bf 644f 0dbd fc3a 593e
000000e0: f883 11be 9018 a93e 9fa1 123d be6d d5be
000000f0: c377 acbd 36d2 8bbd 6a88 41be 2dc1 13bf
00000100: 1637 6fbe 29e7 cd3c f585 093f 1a3f 98be
00000110: 4597 073d 3a7a cc3e adf3 203d 550b 0fbf
00000120: 13b8 873d ba11 27bf 17fb b83d edec afbe
00000130: df5b 573e b3a2 92be a804 393e a505 c03e
00000140: 6c99 0d3e 154e 49bc 0da3 fcbe f4e4 09be
00000150: 2118 083e 94c8 ce3e f720 54bc 2d29 32bf
00000160: d78e 293e 5c9c 613e 4bce f1bc f18b 803e
00000170: 9cff fe3c bf14 e73d 2725 f83d 9cb0 45bd
00000180: a531 a33b 8c23 a7be 3c05 81bd 09aa 27bf
00000190: c90c c93d e82d b0be 3b00 0cbf 9faa f33d
000001a0: 079a 873d b28e 953e 36c7 10bf 8db6 47be
000001b0: 5248 813e 1995 593e cf68 cc3d 4175 5e3e
000001c0: 242e e03e e32b 353c 1018 6ebe 0038 30bd
000001d0: bc58 b5be 7b52 16be fe6f 633d 8912 8c3d
000001e0: a7f5 2c3c 4790 85bd 9b0c 24be 9f92 1cbf
000001f0: 8cc7 1f3e 1a1b 90be 9197 813d 74fa 023e
00000200: 1d61 483e 7965 af3e 7874 d33e f854 bebd
00000210: 15ef fbbe 78c8 9bbe 2622 b43d eaa8 10bd
00000220: c8af fcbd 8eb8 84bd 8d74 0d3e ff88 0b3f
00000230: 76d8 0ebe b8e5 193e 82a6 ccbe c08a a6bd
00000240: 6ebd c23d 405d edbd 096f 88be f22e 8c3e
00000250: ea40 d53b f5b0 113e c29a 34be a5e5 3a3e
00000260: ccad cdbe 5a0c 94be 3d7b 0a3f f4b3 1e3f
00000270: 8189 933d f967 2e3e 74f6 15be 895b 98be
00000280: 563b 14bf 7116 6fbe d40f 50be 2011 a43e
00000290: ba66 8abe dd7c 94bd 10f8 3cbe 9b25 77bd
000002a0: 316e 73bd 8bf3 aebd 533f 14bf 2204 b83e
000002b0: 0d0d ae3e 1dd8 093f 2e68 053e 4e76 68be
000002c0: 9c8d 303e 0600 37bc 7610 34be cb7c 81be
000002d0: 4e39 143f b93d 0e3f 2f31 af3d 9df9 adbc
000002e0: dbb0 3dbf e374 923e 9604 42be c875 6e3e
000002f0: 29f5 3ebd f43a 803d 3409 2e3e a97b 1f3d
00000300: 12fc 0ebd 47bd 92be f75e d23e 960d 413a
00000310: ee1d 56be 4576 793e bbf5 1fbe e373 543e
00000320: 4eab 52be dfe0 053e e739 55be 84d8 6d3d
00000330: 3e7c 7e3e 7779 bf3c a23a 50be 012a bb3e
00000340: c26e d53e a8f3 9cbd 7449 13bd df7b dc3d
00000350: 528f 0cbe a1c7 cebd 92d3 febd d50f bc3e
00000360: 98b4 80bc 521d 963d 5209 bbbd 6169 753e
00000370: 835f 27be 341c a23e 23f5 013f 4995 c8bd
00000380: 9719 bfbd 0537 4b3e 22e6 a0be c476 fe3e
00000390: b77d e3be 429d 043e e9b0 98be edd7 233f
000003a0: 251c bf3d 60e1 333d 993f 153f 95be b73e
000003b0: e63d 043f fed1 913c 138b 7a3e 130c e53d
000003c0: 9207 2c3f 08bc b4be 372c 8d3f 1cfb adbd
000003d0: 0400 d0bc e7ac ccbd e6c8 3bbd 6416 edbd
000003e0: 9002 4dbe 39aa 8fbe 13c2 8d3c d19e a53e
000003f0: 927a 3a3e b5af 5b3e 60cc 88be 9afa bd3e

fc3.bias f4 [2]
0.021837847 -0.11569527
00000000: 49e5 b23c a4f1 ecbd
