actor_0_checkpoint.pth (torch_old, 159294 bytes, 6 tensors)

fc1.weight f4 [256, 24]
000000 77 6e 7c 3e 77 cd 98 bd 22 f8 de bb 7f a1 f9 3d
       0.24651514 -0.07461064 -0.006804482 0.12189006
000010 ea cc 4f be 0c e6 7d 3e 5e 29 17 bc dc 0b 05 3e
       -0.20293012 0.24794787 -0.009226171 0.12992805
000020 f5 87 19 3e 24 5b 20 bd c7 db 7a 3d 1e 6b 13 bd
       0.1499327 -0.03914942 0.061244752 -0.035990827
000030 e5 ce a8 3c ce ba ad 3d aa 00 28 bc da f7 83 bd
       0.020606468 0.08482896 -0.010254065 -0.06443758
000040 98 39 ca 3d 54 51 07 be 8b fb 42 3e 22 39 e6 bc
       0.098742664 -0.13214618 0.19041269 -0.028103415
000050 65 b6 30 be 35 cb f8 3d 26 37 b6 bc 3b fc 37 be
       -0.17257078 0.12148134 -0.022243094 -0.17967312
000060 47 77 0c 3d 13 35 62 be 90 3c 08 3e 54 3a c2 3d
       0.03429344 -0.22090559 0.13304353 0.094837815
000070 f1 ac 44 be 98 b4 e9 3d 38 0d 8c 3d 8c c5 35 3e
       -0.19206597 0.11411399 0.06838459 0.1775114
000080 8e 08 97 3e 4b 4d a4 be b4 11 4e be af 83 c3 3d
       0.29498714 -0.3209022 -0.2012394 0.09546601
000090 e1 b1 6c 3e b1 20 ac bb 53 41 a4 3d 6e e1 ca 3d
       0.2311473 -0.0052529206 0.08020272 0.099062786
0000a0 df 0e c5 3e 7a f7 12 be c0 5d 00 3e b5 42 80 3e
       0.38487908 -0.14352217 0.12535763 0.25050893
0000b0 3b 56 44 bc 77 26 b7 3e 1c 57 0b be a6 c2 9d 3e
       -0.01198345 0.35771534 -0.13607448 0.30812567
0000c0 a1 f8 c7 bd 6e e5 b3 3c 4b 75 23 be d0 39 29 3c
       -0.09764219 0.021959987 -0.15962712 0.010328725
0000d0 72 f0 a3 3d ea e5 00 3e 0b b1 75 3e c5 e4 8a 3e
       0.08004846 0.12587705 0.23993318 0.27127662
0000e0 a7 9a 68 bd 48 c2 69 bd eb cb ad 3d fd d9 f4 3d
       -0.056788113 -0.057070047 0.0848616 0.119556405
0000f0 47 32 13 be dc 5c 81 3e c9 04 ad 3d ea ee 72 3e
       -0.14374648 0.2526616 0.08448178 0.23723951
000100 c8 2e f8 bd 18 d7 23 3e c4 a3 0d bd 94 dd a2 bd
       -0.12118298 0.1600002 -0.034580007 -0.07952419
000110 4b ac d9 bd f9 fa 3d be a4 b2 a4 3d 51 fa 20 be
       -0.106285654 -0.1855277 0.080418855 -0.15720488
000120 60 b6 17 3e 84 2d 8c be e7 3a 14 3e ba 1d d3 3c
       0.14815664 -0.27378476 0.14475594 0.02577101
000130 f2 86 29 3e d7 11 97 3d d6 f3 e3 bd 6e 47 ab 3d
       0.16555384 0.073764496 -0.111304924 0.083632335
000140 26 c7 a1 bd 84 0c c9 be 31 7b 22 bd 5d 68 09 3e
       -0.07899313 -0.3926736 -0.039668266 0.13418718
000150 28 a6 68 3e 66 a6 25 be b8 26 6f be c8 92 a2 3e
       0.22719634 -0.16176757 -0.23354614 0.3175261
000160 ab cf 83 bc 37 2a 38 bd 26 cf b8 3d 69 f5 17 bc
       -0.016090235 -0.044962134 0.090238854 -0.009274819
000170 b7 a4 80 3e 0f 88 d3 bc d2 7d e5 bd 52 45 40 3d
       0.25125667 -0.025821714 -0.11205639 0.04694111
000180 31 c5 3a bc 52 86 ac be 33 10 cc bd 8a 7f 0e be
       -0.011399553 -0.33696228 -0.09964027 -0.1391584
000190 5d c2 7d 3e 0f ca 64 bd 1f 74 d1 3d 57 90 34 3c
       0.24781175 -0.05585676 0.102272265 0.011020741
0001a0 d9 69 55 be fb b6 f6 be a4 d2 44 3e 82 84 c4 3c
       -0.20841159 -0.48186478 0.19220978 0.023988966
0001b0 9b d6 a1 3e e6 72 2f 3e 7d a2 7d 3d 91 c8 29 3e
       0.31609043 0.17133674 0.06192254 0.16580416
0001c0 ab 71 3c 3e 8d 87 ac be 6d 70 70 3d 7f dc 58 3e
       0.18402736 -0.33697167 0.058700968 0.21177863
0001d0 e6 cc be 3e 58 20 b7 3e 1b 99 ea bd 41 48 b3 bd
       0.372657 0.35766864 -0.11454984 -0.08754016
0001e0 4f a2 48 be e2 46 f5 3d 88 4c 93 3e e4 fa 23 be
       -0.19593166 0.119764104 0.28769326 -0.16013676
0001f0 7f a6 16 3e 8f 9d 00 bc db 84 dc bd ac bc 98 bd
       0.1471195 -0.007850065 -0.10767528 -0.07457861
000200 6e 2b 41 3d 3a 43 92 3e 35 eb 17 be 29 60 69 bd
       0.04716056 0.28566915 -0.14835818 -0.05697647
000210 1c 94 8b 3e 88 d3 8c 3e 82 53 d8 3d 09 54 33 3d
       0.27261436 0.27505136 0.10562803 0.043781314
000220 c9 71 f2 3d b5 03 02 3e d6 a8 de bd fc 81 38 be
       0.11838109 0.12696727 -0.10872047 -0.18018335
000230 aa 8f d0 3c 91 29 04 3e 96 08 c1 bd 28 fd 86 3d
       0.02545913 0.12906481 -0.09425466 0.065912545
000240 35 82 e0 bc a1 c9 36 3e 80 97 bd 3d 0f ec 24 3e
       -0.027405838 0.17850353 0.09257412 0.16105674
000250 3c 42 39 3e c1 aa 7e 3e e5 4d 61 bd 26 cc 96 3e
       0.18091673 0.24869825 -0.055005927 0.29452628
000260 b2 70 e1 bd 4c d8 75 3e a9 6c 2d be 3a f3 55 bd
       -0.11007823 0.24008292 -0.16935982 -0.052233912
000270 7e 6b c9 bd 3a ee 13 bd ff 79 2c 3e 49 d2 4b 3c
       -0.09834956 -0.036115862 0.16843413 0.012440273
000280 fd d1 57 be 76 c2 c0 3e 24 15 6e 3c 59 c7 87 3e
       -0.21076198 0.37648362 0.0145314075 0.26519278
000290 81 d4 0f be 23 67 22 be b5 23 00 be 3c 6e b2 3d
       -0.14045908 -0.15859656 -0.12513621 0.08712432
0002a0 02 fe 6d be 0e a1 98 be 77 5c 67 bb 6b 1f 88 3e
       -0.23241428 -0.29810375 -0.0035302916 0.2658647
0002b0 ed 1d fa 3c 95 6d 40 3e 6d 83 86 3e 38 4a c1 3e
       0.030531848 0.18791802 0.26272145 0.37751937
0002c0 0c 7b 26 3e 50 a1 13 be f9 b4 73 bd 0a c6 b5 3e
       0.16257876 -0.14417005 -0.05949876 0.35502654
0002d0 a7 71 ca bb 3e ef 3b 3d d3 cc c0 bd 1c e8 1e 3e
       -0.006178099 0.045882456 -0.09414067 0.1551823
0002e0 94 8f f9 bd 2f 19 2c 3e b1 12 77 be c2 a1 8b 3b
       -0.121855885 0.16806482 -0.24128224 0.0042612264
0002f0 e0 e0 54 3d d1 c4 1d be f9 c3 06 3c d7 ab ad 3d
       0.05197227 -0.15407111 0.008225434 0.084800415
000300 94 93 0e be 84 d7 11 be 9a 3d 96 3d c9 0f 06 be
       -0.13923484 -0.14242369 0.07335968 -0.13091959
000310 b3 d1 e3 3d 27 f2 9b 3d c5 45 00 3e f4 54 05 be
       0.11123981 0.07614546 0.12526615 -0.13020688
000320 72 f2 da 3c 7b 6c 86 be 98 c4 47 3e 4b e1 e2 bc
       0.026726935 -0.2625464 0.19508588 -0.027695319
000330 a8 3d d6 3d 38 ad 15 3e 86 29 a1 3b dd 33 38 3d
       0.10460979 0.14616859 0.00491828 0.044971336
000340 c9 9e f1 3d 54 6f d1 3d 49 e6 d1 3b ba da 5d 3d
       0.11797864 0.10226312 0.006405626 0.054163672
000350 a7 c3 4a be 05 7f af 3e 83 46 1b 3e 24 7b 24 3e
       -0.19801198 0.34276596 0.15163617 0.160626
000360 69 5b 40 3e 00 b1 d7 be 3a c1 51 bd 7c 14 b2 3d
       0.1878487 -0.42127228 -0.051209666 0.08695313
000370 4c c7 3d be ab 20 87 3e e1 59 0b be 38 80 72 be
       -0.18533057 0.2639211 -0.13608505 -0.23681724
000380 43 b6 13 3e 0d 78 a3 be 25 b9 59 3d ce 64 04 3e
       0.14424996 -0.3192753 0.053155083 0.12929079
000390 a3 ba d9 3d e4 c4 c5 3e 1e 9d 6f 3d 56 22 36 be
       0.10631301 0.38626778 0.058499448 -0.17786536
0003a0 9e cf 41 3e 01 6c 33 be 78 a3 dc bd bc f5 13 3e
       0.18926856 -0.17521669 -0.10773367 0.14449209
0003b0 4c d4 3d be 6f 84 ee 3e 84 5d d5 3d b2 b4 89 bd
       -0.18538016 0.46585414 0.10418227 -0.06723918
0003c0 7e f8 8d be 5d e0 48 3d 85 fe 8c 3d ed 13 ff bd
       -0.27728647 0.049042094 0.06884483 -0.124549724
0003d0 48 b2 17 be f0 1a 0e be a1 c3 55 be 4a 9b 86 be
       -0.14814103 -0.13877463 -0.20875408 -0.2629035
0003e0 12 f0 36 be 15 17 86 3e 61 1f 26 3e 41 08 a6 bd
       -0.17865017 0.26189485 0.16222908 -0.08107043
0003f0 5e ac 73 3d dd 3e 64 3d 83 28 dd 3b 7a 5f e9 bd
       0.059490554 0.055724014 0.006749214 -0.11395164

fc1.bias f4 [256]
000000 f4 8c 21 3e 8d da a2 3c 78 fe ff bd ea 45 f2 3d
       0.15776426 0.019879604 -0.12499708 0.11829741
000010 b7 da 6b be 7f c7 18 3e df fe 38 3e ac b2 cb 3d
       -0.23032652 0.14919852 0.18065976 0.09946188
000020 02 e5 ad bd b5 25 d9 3d 74 46 d4 3d 62 03 a5 bd
       -0.084909454 0.10602895 0.10365 -0.08057286
000030 3b 44 0e 3e 9f 03 81 be 05 52 16 3e 14 50 4e bd
       0.13893215 -0.25198075 0.14679725 -0.050369337
000040 ee 7d 94 bd d2 96 c8 bc f5 fb 0a be da bd 2a be
       -0.07250582 -0.02448598 -0.13572676 -0.16673985
000050 85 74 7b bd c2 b5 36 3e 48 78 a7 39 3e 3d 34 3e
       -0.06139042 0.17842773 0.0003194234 0.17601487
000060 8b e4 cd 3d d3 38 26 3e 12 62 46 be 50 87 88 bd
       0.10053357 0.16232614 -0.19373348 -0.06666434
000070 f0 29 da 3e cb 42 7b 3d d7 26 b6 bc 6c 9e 94 bd
       0.4261012 0.061342996 -0.022235317 -0.07256779
000080 9b 73 f7 bd 5b 5b 4a be 69 24 10 3d 48 87 b3 3d
       -0.12082597 -0.19761412 0.035190973 0.08766037
000090 e8 67 a1 bd a0 de 54 3d a0 3a 87 3c 2c 46 54 be
       -0.07881147 0.051970124 0.016507447 -0.20729893
0000a0 59 75 3a be 5c 10 06 3e bc 87 32 3d 4b ae 84 bd
       -0.18208827 0.13092178 0.043586478 -0.06478556
0000b0 08 c5 28 be a1 da 6b bd 00 88 92 3e 7e 39 4d bc
       -0.16481411 -0.057581548 0.28619385 -0.012525914
0000c0 ff 89 0b 3e 54 79 be 3d f3 4a d8 bd 4e 21 12 be
       0.1362686 0.09300485 -0.105611704 -0.14270517
0000d0 48 b0 e8 3d 43 6b 0f be 82 c1 0b bc aa 42 8d 3e
       0.11361748 -0.14005761 -0.008530023 0.27589923
0000e0 12 f9 89 3d 83 6d 0b 3e 20 47 66 3e 98 f1 63 be
       0.067369595 0.13615994 0.2248807 -0.2226013
0000f0 ab b7 1c be 4d 75 a0 3e 8b ba 69 bd 8d f4 45 3d
       -0.15304439 0.31339493 -0.057062667 0.048328925
000100 37 49 8a bd bf ab 81 be b5 f3 50 be b7 ae cd 3c
       -0.06752246 -0.25326344 -0.20405467 0.025107725
000110 d6 6c 06 be 7f d3 21 3e 68 43 5e bd bf 59 c0 bc
       -0.13127455 0.15803336 -0.054263502 -0.023480294
000120 5a 09 36 bd 99 7d 01 3e 2b e0 23 be d6 53 1d 3e
       -0.044442512 0.12645568 -0.16003482 0.15364012
000130 f9 06 36 be 6a ea b3 bd c5 e4 b6 3d 90 21 56 3e
       -0.17776097 -0.08784945 0.08930353 0.2091124
000140 60 41 d9 bd ef a0 35 be 0f 50 f3 bd dd d4 11 be
       -0.106081724 -0.17737173 -0.11880504 -0.14241357
000150 5c a2 f1 bd 39 c4 9a bd 21 b6 ce 3c 0a 10 ac bd
       -0.11798546 -0.07556958 0.02523333 -0.08401497
000160 49 e6 5f be 8e d5 d2 bd 9a 98 17 3d 30 1f 18 3e
       -0.2186519 -0.102946386 0.037010767 0.14855647
000170 01 74 35 be 3c 7a 7b 3e 43 5f f9 bd 8a ee 53 3e
       -0.17720033 0.24558347 -0.12176373 0.20696464
000180 53 0e 31 3e 05 9d b2 3d a8 08 7c bd 4a 5b 91 bd
       0.1729062 0.08721355 -0.061531693 -0.0709749
000190 9e fe d1 3c 23 b3 24 3d 3f 3c 4f be 63 d2 64 3e
       0.025634106 0.0402099 -0.20237826 0.22345881
0001a0 c8 53 ea bc 2f 8f e2 3d cd 5b 5f 3e 39 f8 c1 3d
       -0.028604403 0.11062466 0.21812363 0.09471173
0001b0 e5 07 5a bd 0c 7b 53 be 2d f7 c3 3c 41 cc 0a 3d
       -0.053230185 -0.20652407 0.023921574 0.033886198
0001c0 be 0f 32 be 19 c6 68 be 30 8f 74 3d 13 aa 29 be
       -0.17388818 -0.22731818 0.059706867 -0.16568784
0001d0 32 ab 62 bd a2 30 06 3e 31 3e 81 3e 9c 83 43 3e
       -0.055339046 0.1310449 0.2524276 0.19093174
0001e0 ac 3f f9 bc d3 50 a3 3d 3c 83 70 3d a3 41 db 3c
       -0.030425869 0.079744 0.058718905 0.026764696
0001f0 4f 99 e2 3d db 7f 04 be a6 da 08 3e 94 c7 ab 3c
       0.110643975 -0.12939398 0.13364658 0.02096919
000200 4a a8 d1 3d 17 d7 20 3e 72 7e d1 3d de b0 9e bd
       0.10237177 0.1570705 0.10229196 -0.077485785
000210 30 19 f3 3d 42 71 36 3d a0 8f 52 be 84 be 7c 3e
       0.118700385 0.044541605 -0.20562601 0.24682051
000220 74 28 09 bd 49 64 e7 3c 86 f6 18 3e d4 46 1c 3e
       -0.033485845 0.028246062 0.14937791 0.15261394
000230 5e ea 18 bd 8a be a2 3c 04 1f 66 3d b8 7a b1 3d
       -0.037332885 0.019866247 0.056181923 0.08665985
000240 be 5c c9 3d ee 3f 28 3e f3 b3 1e bd 73 e0 3f be
       0.09832142 0.16430637 -0.03874583 -0.18737964
000250 c4 28 23 be 11 10 4e 3e b1 bf 0f 3e 92 09 57 bd
       -0.1593352 0.20123316 0.14037968 -0.05249936
000260 b1 be 81 3e 0f 7d 3d 3e e3 af 16 3e 76 e5 c2 3c
       0.25340798 0.18504737 0.14715533 0.023791056
000270 5c ed 36 3d 95 df b7 3e 74 f0 6f 3d e5 b2 b7 bd
       0.044659957 0.35912767 0.058578923 -0.08969668
000280 6a 63 f5 3d 53 7b 2e be 1a 9b 41 be ff 8c d6 3d
       0.11981852 -0.17039232 -0.18906823 0.104761116
000290 d1 a5 31 3e e1 3c 5a bd af c0 ce bd 27 b0 8e bd
       0.1734841 -0.053280715 -0.10095345 -0.06967192
0002a0 b1 6a 06 bd cc ef 15 be bf 59 31 3e 5c 15 4f 3e
       -0.032816593 -0.14642256 0.17319392 0.20222992
0002b0 1f f7 99 bd 66 4c 11 be 7f 5d 30 3e 55 43 6d bd
       -0.07517838 -0.141893 0.17223166 -0.05792554
0002c0 97 87 34 bd 40 e8 51 be b1 c0 6a bd e2 b7 51 3e
       -0.04407462 -0.20498753 -0.05731267 0.20480302
0002d0 70 8f 39 3e 5e 3f 8b bc fc b0 44 3e ab a8 56 bd
       0.18121123 -0.01699799 0.19208139 -0.052406948
0002e0 eb 0e 36 be 1b 01 44 3c 2c 3f 70 bd 60 89 06 3e
       -0.17779128 0.011963154 -0.058653995 0.13138342
0002f0 fa 0b 46 3e bd f2 a1 bd a1 78 94 3d 44 a3 f8 3b
       0.19340506 -0.07907627 0.07249571 0.007587822
000300 c2 93 0c 3e 43 31 0b 3e 33 08 1b 3d 0f a7 20 be
       0.1372824 0.1359301 0.037849616 -0.15688728
000310 cf af 99 bc fe 36 f3 bc 85 3b 72 be 04 3f 90 3e
       -0.01876059 -0.029689308 -0.23655517 0.28173077
000320 91 54 7e bc 1d 15 73 bd fb 35 2d 3e 0c df 8a bd
       -0.015523092 -0.059346307 0.16915123 -0.06780824
000330 f4 43 f6 bd 02 3e 5b 3e c8 ff 07 3e c6 39 ea 3d
       -0.1202468 0.21410373 0.13281167 0.11436801
000340 ea e5 0e 3b 0e 36 e7 bd 3f db 65 3e dc 88 9e 3d
       0.002180452 -0.11289607 0.22446917 0.077409476
000350 a0 19 51 bd 01 5e 19 be d3 cb 48 3d 39 61 26 3e
       -0.05104983 -0.14977266 0.049022507 0.16248025
000360 3f 38 c1 bd 01 10 8c be d3 2d 4b be 56 66 82 3d
       -0.09434556 -0.2735596 -0.198417 0.06367175
000370 35 f4 b0 3d 83 ef 59 bc 3b b4 0b bd 0e eb e4 bd
       0.08640329 -0.013301733 -0.034107428 -0.111776456
000380 b5 35 91 3d 02 39 b5 3d 1d 53 39 be 38 b8 27 3d
       0.07090322 0.08848764 -0.18098111 0.04094717
000390 3d 51 c3 bd 27 a5 0c 3e 1c b9 08 be b9 95 46 bd
       -0.09536979 0.13734876 -0.13351864 -0.04848263
0003a0 3d fb 2f be 9f 30 23 be 41 26 61 3d d0 7d 5d bb
       -0.17185684 -0.15936516 0.054968122 -0.0033796914
0003b0 ff 8f d1 bc d1 73 35 3e af 5f d0 bd 6b 54 90 3e
       -0.025581358 0.17719962 -0.101745 0.28189406
0003c0 a6 aa 0e 3c 1c f5 85 3e 10 a9 e5 bd 8f da 75 3c
       0.008707678 0.26163566 -0.11213887 0.015005722
0003d0 e4 72 05 3e 31 a8 98 bb 06 f0 6a bd 8c cd 0c 3e
       0.13032109 -0.004658722 -0.05735781 0.13750285
0003e0 93 93 c3 bc a9 91 16 3e 13 8e 11 be 09 9f 6a 3e
       -0.02387408 0.14704002 -0.14214353 0.2291223
0003f0 0d 10 81 3e 58 42 66 3e 9d 20 aa 3d c1 68 fa bc
       0.25207558 0.22486246 0.08307002 -0.030567529

fc2.weight f4 [128, 256]
000000 c1 ac d7 3c a9 49 00 3e 35 2b df bc 5f aa 99 3d
       0.026327493 0.12528099 -0.027242282 0.07503199
000010 77 a3 3d bd 26 47 44 3d 10 2e 4f 3d 34 72 55 3c
       -0.04629847 0.047919415 0.050581038 0.013027716
000020 01 cb 8a 3d c0 a0 12 be 95 94 ae 3c 27 d2 89 3b
       0.06777001 -0.14319134 0.021311084 0.0042059603
000030 3e 33 8b bd 2a ae 56 bd b1 86 18 bd 8e b5 e5 3b
       -0.06796883 -0.05241219 -0.037237827 0.0070101684
000040 da 51 c2 bd a3 6f 98 3c 67 6c e5 3c 5d a0 5e 3d
       -0.09488268 0.01860792 0.028005792 0.054352153
000050 ee b3 ff 3c f9 d5 14 3d 1b 42 d1 bd 4a 86 34 3d
       0.031213727 0.036336873 -0.10217687 0.04407338
000060 7d 1e e7 bd 81 ab 63 bd 8f af b9 bc 0f 57 4c 3d
       -0.11285112 -0.05558348 -0.02266672 0.049887713
000070 f2 81 4a bd 9d 4c eb 3b ba 30 16 be 38 bf 03 3d
       -0.04944033 0.007180764 -0.14667025 0.032164782
000080 47 1b 1a 3e cf 94 63 bd d7 fa 52 be 49 eb 59 3d
       0.15049468 -0.055561837 -0.206035 0.0532029
000090 03 1e 29 be 99 30 61 3d d1 84 0d ba 70 61 a6 3d
       -0.16515355 0.054977987 -0.00053985143 0.081240535
0000a0 e4 f1 59 3d b9 dc 17 bd 09 45 28 3d e7 dc e0 3c
       0.0532092 -0.037075732 0.041081462 0.027449084
0000b0 3a d4 c9 bc cc f0 c7 bd 94 5a 9e 3d b0 a2 0d 3e
       -0.02463733 -0.09762725 0.0773212 0.13831592
0000c0 6e f7 2e bd f4 eb 43 bd 6f 10 40 bc f0 2c 59 be
       -0.042716436 -0.047832444 -0.011722668 -0.21208549
0000d0 e6 4a a1 3d d7 3e eb bd b5 0d fb 3d 9a 2d a6 3d
       0.07875614 -0.11486595 0.12258474 0.081141666
0000e0 a1 db 01 bd 35 9a 00 be 8e 76 62 3e 40 9d 98 bd
       -0.031703595 -0.12558825 0.22115538 -0.07451868
0000f0 d1 c3 76 bc 2c 55 25 3e ba 11 a4 3d 1e 93 cd bd
       -0.015061335 0.16145772 0.080111936 -0.10037826
000100 7c 2d 71 be 4f 1c a5 bc 2a 2f b8 bd b4 0a c9 bd
       -0.23552507 -0.0201551 -0.08993371 -0.098164946
000110 f3 61 88 bc c1 8b 40 3c 92 1e 78 3d 58 95 85 3b
       -0.016648268 0.01175207 0.06057603 0.004076641
000120 3d ad 89 3d 46 fa 8b 3d 62 47 44 bd a5 89 c5 bc
       0.06722496 0.06834845 -0.04791964 -0.024113486
000130 5e d3 29 be 64 08 ac bd 8b 19 9c be 24 2a 75 3c
       -0.16584536 -0.08400038 -0.30488238 0.01496366
000140 03 37 69 bd 6d a9 f4 3c 9e e1 8c be 85 88 66 bc
       -0.05693723 0.029865945 -0.27515882 -0.014070635
000150 c0 df 3a 3b 7c 01 23 bd c2 e5 83 3d 42 52 38 be
       0.0028514713 -0.039796337 0.06440307 -0.18000129
000160 7f e9 b2 bd fa 73 95 bc 5c 22 db 3c 1a 5c 0e 3d
       -0.08735942 -0.018243778 0.026749782 0.034755804
000170 60 84 36 bb 01 26 9a bd 6f db 8b 3d a9 5e 3b be
       -0.0027849898 -0.0752678 0.06828963 -0.18297829
000180 d7 b7 61 3d d7 5e c0 be ad 26 b9 bc b7 bb 11 bd
       0.055106964 -0.37572357 -0.02260145 -0.03557941
000190 06 11 c0 bd c2 b3 46 3c 98 32 58 3e b3 94 be 3c
       -0.09378247 0.012127819 0.2111305 0.023264265
0001a0 e8 d9 af bd e5 19 af bd 4b eb 2d 3d e9 1d 86 3d
       -0.08586484 -0.08549861 0.04246072 0.06548674
0001b0 56 46 03 be eb ff f2 3c 2f 0d ac bb 76 c7 bd bd
       -0.128198 0.029663047 -0.005250595 -0.0926656
0001c0 66 85 9a 3d 24 77 b5 3c 41 4d 9b 3d 50 cb 6c bc
       0.07544975 0.022151537 0.075830944 -0.01445277
0001d0 7e 53 04 bd 12 55 07 bd af eb b0 bd cc 0e 84 be
       -0.032306187 -0.033040114 -0.08638703 -0.2579254
0001e0 ab f8 cc bd 6c 27 7b bd 97 3d b3 3d 0a b0 47 bc
       -0.10008367 -0.061316893 0.08751982 -0.012187967
0001f0 9d 1c 9a be ac e3 2d 3d a3 2b 87 ba e3 91 0a bd
       -0.30099955 0.042453453 -0.0010312687 -0.033830535
000200 af 93 83 bd be bf b2 be c9 4e 27 bd b8 35 82 3d
       -0.06424653 -0.34911913 -0.04084662 0.06357902
000210 81 41 06 3e 5b bf 26 3d 9d 91 0f 3d 01 2d 18 3d
       0.13110925 0.040709835 0.035050977 0.037152294
000220 10 90 a9 be fb fe 42 3d 6b e1 15 ba d0 b1 a8 bc
       -0.33117723 0.04760645 -0.0005717489 -0.0205926
000230 c5 e8 2d 3d 90 04 85 bd 01 5b 6b 3d bd a3 62 bd
       0.042458314 -0.06495011 0.057459835 -0.055331934
000240 8e ad 1a be 9e ea 40 bc 8d fd b1 bc fa b8 ca 3c
       -0.15105268 -0.011774687 -0.021727348 0.024746407
000250 7d 84 c3 ba ee d0 e6 b9 f6 c7 bd bc 13 5c 67 3c
       -0.0014916804 -0.00044024683 -0.023166638 0.014121073
000260 08 55 95 3d fd 8d e3 3d 65 b9 f5 bc 57 f7 11 3c
       0.07291609 0.111110665 -0.02999563 0.008909068
000270 a9 4b 51 3e cb 49 cb bd 7e 49 1b be 62 d7 3b be
       0.20439018 -0.09926184 -0.15164754 -0.18343881
000280 cc 00 48 3c b0 51 c1 bc 35 23 99 3d 66 66 f3 3b
       0.012207221 -0.023598522 0.07477418 0.0074279783
000290 c6 49 35 be d3 e0 cd 3c 61 20 5f 3c 9b 49 85 bd
       -0.17703924 0.025131619 0.01361856 -0.0650818
0002a0 11 f5 4d 3b 98 45 b2 bd e1 61 c6 3d 88 b5 62 3b
       0.0031426589 -0.0870468 0.09686638 0.0034593064
0002b0 2e 59 e9 3c 5f 47 bc 3c c1 59 40 3e f3 43 9f 3d
       0.028484907 0.022983251 0.18784238 0.07776632
0002c0 80 7f 52 bd c0 f4 a7 3d 64 62 62 3d f4 73 47 3e
       -0.051391125 0.08200979 0.055269614 0.19477826
0002d0 c6 ff 2e bd 53 48 32 3d 89 1c a6 bd f5 1b 29 bc
       -0.042724393 0.043526005 -0.081109114 -0.010321607
0002e0 53 43 56 3d 38 76 c1 bd ad 3b f9 bc 60 05 89 bd
       0.0523103 -0.094463766 -0.030423963 -0.06690478
0002f0 a9 37 f5 3c f1 b0 08 3d a5 c6 e3 bc 21 f9 62 3d
       0.029933767 0.03337187 -0.027804682 0.05541337
000300 fb 06 02 3e 13 e7 cf bd be a7 28 3e 7f 0f cf 3c
       0.12697975 -0.10151496 0.16470239 0.025275944
000310 b2 ab c9 bd c8 7d fe 3d 4e 37 86 3d ef 3d 03 3e
       -0.098472014 0.124263346 0.06553517 0.12816595
000320 7e 0e ac bd 26 4d b4 3d aa ad 0d 3d 14 0a 2a 3e
       -0.08401202 0.088037774 0.034589447 0.16605407
000330 1f 95 2b bc 31 d7 92 3d 37 b0 eb 3c 63 a1 3f bd
       -0.010472565 0.07169951 0.02877055 -0.04678477
000340 70 f8 81 3c 3f c8 96 3d 1d 89 7f bd d6 c1 e7 3d
       0.015865535 0.07362413 -0.06238662 0.11316268
000350 dd d5 8e 3c c4 39 26 bc 19 31 2f 3c f0 26 ee be
       0.017435962 -0.010145608 0.010692858 -0.46514082
000360 a9 bf 11 3e 49 7d 68 bc 75 68 6d be b4 81 c2 bd
       0.14233269 -0.014190027 -0.23184378 -0.09497395
000370 21 09 e2 bd e3 90 2b be f8 e9 b4 3d c0 b5 2a 3c
       -0.110368975 -0.16754489 0.088336885 0.010419309
000380 43 0a b5 bc 2c e3 2d 3d 5a 1e 6e 3d bb 4a 00 be
       -0.02209962 0.042452976 0.058134414 -0.12528507
000390 83 75 e6 3c f0 77 6a 3d bd 3a 26 be bf 98 f3 bc
       0.028132206 0.057243288 -0.16233344 -0.029735921
0003a0 ad 6d 78 bd 9c dd 3d bd 0e 8b a8 be d5 e2 39 3e
       -0.06065147 -0.04635392 -0.3291859 0.18152936
0003b0 28 73 81 3d d3 b0 34 be 33 38 53 bd 0f ce 1c 3d
       0.063207924 -0.17645578 -0.051567268 0.03828245
0003c0 6b 70 eb bc c0 64 92 bc bf 09 14 bd 7d e1 7f 3c
       -0.028740129 -0.017870307 -0.036142107 0.015617725
0003d0 67 80 37 3d e5 5c 0f be 50 59 fd bb 4a 10 03 bd
       0.04480019 -0.1400028 -0.007731594 -0.031997956
0003e0 eb c6 02 3e e0 d7 7a 3e 57 2f f5 3d 08 7f da bd
       0.12771194 0.24496412 0.1197192 -0.106687605
0003f0 a8 9f e6 3d f5 0a da bb 56 79 9b bd 28 26 02 be
       0.11260921 -0.006654138 -0.07591502 -0.12709868

fc2.bias f4 [128]
000000 b2 c1 fd bc e4 12 ad 3c e6 06 ba bd 5f 90 f3 bd
       -0.03097615 0.021127172 -0.09083347 -0.11892771
000010 29 2b fc 3c 3e 95 91 3a 2a 56 a4 3d 9b d8 fc 3d
       0.0307823 0.00111071 0.08024247 0.12346002
000020 59 17 c8 bb e2 af 44 3d 92 ee c4 3d b3 b4 2f be
       -0.006106299 0.048019297 0.09615816 -0.17158775
000030 5d 9f 4f bc 65 c6 21 bd 6a 0d ae bd 25 0e ba 3d
       -0.0126722725 -0.039495844 -0.08498652 0.09084729
000040 58 99 56 3d 69 18 f1 bc 83 a1 50 3c f3 02 07 be
       0.052392334 -0.029430585 0.01273382 -0.13184719
000050 35 7c 1a 3e f4 34 57 bd 09 21 69 3d 70 89 ad bc
       0.15086444 -0.052540734 0.05691627 -0.0211837
000060 e3 1e be bd 1b e1 d7 bd a5 dc b2 bd da 7e 40 bd
       -0.09283235 -0.10540982 -0.08733491 -0.046995975
000070 06 b6 40 bc 8b 4d bb 3d 4b a5 a7 3c e6 57 12 bd
       -0.011762148 0.091456495 0.02046456 -0.035728358
000080 9d 4c 9f bd d7 eb 3a bd 15 cc 13 3e 0c e2 e2 3d
       -0.07778285 -0.04563507 0.1443332 0.11078271
000090 c2 cb 88 bd e8 a0 cc bd fa 9e 0b 3e 93 94 95 3d
       -0.06679489 -0.09991628 0.13634863 0.07303729
0000a0 f3 62 33 3d f3 b5 9b bc 06 14 32 bb 25 cc d5 3d
       0.043795537 -0.019007659 -0.002717258 0.10439328
0000b0 74 0d 71 bd 88 14 ad bc 23 f4 c8 bc f4 d3 cd 3c
       -0.05885072 -0.021127954 -0.024530476 0.025125481
0000c0 07 db 55 bd 78 50 ea bc be 67 d3 3c e9 63 d1 bc
       -0.052210834 -0.028602824 0.025806304 -0.025560336
0000d0 32 0e 70 3d 3d c3 23 3c af 32 d5 bb 66 d4 a6 bd
       0.058607288 0.009995279 -0.006506286 -0.081459805
0000e0 e0 99 58 3c 88 a6 10 be 91 96 91 bd a8 d5 15 3d
       0.01322028 -0.14126027 -0.071087964 0.03658071
0000f0 42 88 85 3d fc c0 22 3d 69 20 9c bd e9 3e 8d bc
       0.0652013 0.039734825 -0.07623369 -0.017241912
000100 e6 34 cb 3d 61 49 b6 3d f5 c8 98 3d bd df a5 3b
       0.09922199 0.08900715 0.074602045 0.005062072
000110 ae 11 1f 3d 09 71 23 3d f6 fc 3b bd 67 72 87 bd
       0.03883522 0.03990272 -0.04589554 -0.066136174
000120 6c 23 0b be e8 b1 74 3d 6e 41 d1 bb df 9e 4b bd
       -0.13587731 0.059739977 -0.0063859737 -0.04971206
000130 a8 a3 3a bd 51 3f 0d bd 3d 9e 60 bc 9e 82 1d be
       -0.04556623 -0.03448421 -0.013709602 -0.15381858
000140 e0 45 b7 3c 77 b5 00 bc 57 3f b9 bc f8 b7 27 bd
       0.022372186 -0.007855765 -0.02261321 -0.04094693
000150 02 65 f8 bd 50 ed 35 bb d0 b7 ea 3c c0 90 8a 3d
       -0.12128641 -0.0027759857 0.028652102 0.0676589
000160 91 7c b0 bc 71 e3 71 bd 7a 38 f5 3b e9 b0 cb ba
       -0.021543773 -0.059054796 0.007483539 -0.0015540394
000170 b3 3e 97 3c c1 1c f4 bc 77 7f d9 3b 76 cb b2 3d
       0.018462515 -0.029798867 0.0066375094 0.08730213
000180 78 98 24 3d aa f2 94 bc 1a 22 13 bd 10 44 90 3d
       0.040184468 -0.018182117 -0.035921194 0.07044232
000190 39 0e 4f bd e2 f6 eb 3d 4e 1f 66 3d 46 15 cf 3b
       -0.050550673 0.115216985 0.0561822 0.0063196747
0001a0 92 9b 09 3d 4f 1b e9 bd cb 95 37 3c 00 d8 df 3d
       0.03359563 -0.11382162 0.011205147 0.109298706
0001b0 50 71 05 3e b2 07 72 bd 97 04 0e bc b0 26 e2 bc
       0.13031507 -0.05908937 -0.0086680865 -0.027606338
0001c0 1d a5 e1 3c 5b 4c 2f bd 84 9c 86 3d 7b 2f 51 3d
       0.027544552 -0.042797428 0.06572822 0.05107067
0001d0 3d 1c ee 3d 4e 3d e8 bc 50 0d 61 3a dc 87 8e 3c
       0.1162648 -0.028349545 0.00085850526 0.017398767
0001e0 ec 27 fa bc 5e 68 cc 3d 93 6c 9e 3c 5c ef 5a 3c
       -0.030536614 0.09980844 0.019338882 0.013362732
0001f0 34 39 a6 bc 6c 2d 9f 3d b4 12 13 be 50 1a a8 bc
       -0.020290948 0.077723354 -0.14362603 -0.02052036

fc3.weight f4 [2, 128]
000000 ec e0 dc be 13 35 9e 3c 29 15 eb 3d e6 e7 20 3e
       -0.43140352 0.019312417 0.11478645 0.15713462
000010 d8 fa ae ba eb 4f 76 3d a6 70 a4 bd 47 94 67 be
       -0.0013349904 0.06013481 -0.080292985 -0.22615157
000020 0b 5d 7a be 8d 62 b9 bd db 22 a8 be ac e2 a6 3e
       -0.24449556 -0.09052 -0.32839093 0.32594812
000030 bb 85 03 3e 54 88 01 3e 16 5e 8e 3d 02 cf dc bd
       0.12843983 0.12649661 0.06951539 -0.10781671
000040 5b 76 88 bd 2f bc 87 3d 75 1d 6d 3d 4d ae 31 3e
       -0.066631995 0.0662769 0.05788942 0.17351647
000050 52 82 80 be c4 83 9e be d6 61 7f be de 04 47 3e
       -0.25099427 -0.30959904 -0.24939665 0.1943545
000060 81 82 3d 3e 50 3a 00 3e 96 e9 72 3e dc a1 1d be
       0.18506815 0.12522244 0.23721918 -0.15393776
000070 fb 7b 42 3e 10 29 16 be 68 06 75 3e fa e6 1c 3e
       0.18992607 -0.14664102 0.23928225 0.15322486
000080 62 dc 0d 3e 61 00 c5 3d ec 54 93 bd fb d4 31 be
       0.138536 0.09619213 -0.07193932 -0.17366402
000090 22 12 23 3e e0 ea e8 3d 72 6d 70 bb 86 9d ad bd
       0.15924886 0.11372924 -0.0036686328 -0.08477311
0000a0 be 43 02 3e b5 e6 21 3e 8f 15 80 bd 9c 80 ec bd
       0.12721154 0.15810664 -0.06254112 -0.11547968
0000b0 fd 27 32 3d f3 01 17 be 91 57 a9 be 0d 95 cc bd
       0.043495167 -0.14746837 -0.3307462 -0.09989367
0000c0 ca a3 aa 3e 9c 87 2d bc 72 00 a3 3e 8b 27 be 3e
       0.33328086 -0.010591414 0.31836277 0.37139544
0000d0 b1 77 3d be 35 c6 0b bf 28 18 1f 3c 93 e8 7d 3e
       -0.1850269 -0.54599315 0.009710349 0.24795751
0000e0 a2 4b 4b be d6 20 a2 3e f4 f4 b3 3e 55 67 45 be
       -0.1985307 0.31665677 0.35147822 -0.192777
0000f0 df 0c 64 be 31 2e 3b be 51 6d f1 be b0 ef 9d bd
       -0.22270535 -0.1827934 -0.47153714 -0.077117324
000100 c3 69 d0 be dc 3e 95 3d 43 58 85 be 2d e5 fb bd
       -0.4070569 0.0728738 -0.260439 -0.12299571
000110 bd 98 ae 3e be bc 67 3e 60 d8 af 3d 4b 87 da bc
       0.34100905 0.22630593 0.08586192 -0.02667584
000120 39 5d 64 3e 4a 65 89 be cd ae b4 3e bc 94 a3 be
       0.22301187 -0.2683509 0.35289612 -0.31949413
000130 ad a2 fc 3d ff b4 81 bd 78 c4 11 3e 4c 46 62 3e
       0.123357154 -0.063333504 0.14235103 0.22097129
000140 57 a6 c8 3b fc 43 d1 3d d9 95 e5 bd ac 99 0b be
       0.006123345 0.10218045 -0.11210222 -0.1363284
000150 4a 9f a6 3e 13 c3 0c 3e 4c 2d d6 bc 43 a2 e2 be
       0.32543403 0.1374629 -0.026144646 -0.4426442
000160 3b d4 f6 3d d9 b0 61 3e 54 be be bd f1 50 24 3e
       0.120521985 0.22040118 -0.09313646 0.16046502
000170 df 8b 9b 3e 60 c3 3a 3e 63 c6 4f 3e 5a e2 ae bd
       0.3038015 0.18238592 0.20290522 -0.08539267
000180 d5 9a 04 3f 0e 18 ee bd b3 b2 b9 3d b3 8f 5f be
       0.51798755 -0.11625682 0.09067287 -0.2183216
000190 a1 d8 0e 3e 2f b0 3c be 1a 21 9c bd 11 a2 00 be
       0.13949825 -0.18426584 -0.07623501 -0.12561823
0001a0 ce 9e 78 bd 0d 2d 10 3f ca 70 ae bd ac f0 0b be
       -0.060698323 0.5631874 -0.085176066 -0.13666028
0001b0 08 58 1b be db 48 0d 3e b2 e0 9c bd 20 78 16 3d
       -0.151703 0.13797323 -0.07660045 0.036735654
0001c0 a9 e5 ac 3c 6b 7c a6 3d 8d 32 bc be d7 3e 33 be
       0.021105604 0.081291996 -0.36757317 -0.1750444
0001d0 fc 63 27 be da 3f 42 be 25 b0 b4 3e 66 7d d3 3e
       -0.16346735 -0.1896967 0.35290638 0.4130661
0001e0 31 02 06 3e 0a b2 c8 bd 8d ba 39 be af 1f f6 be
       0.13086773 -0.09799583 -0.1813757 -0.48071048
0001f0 cb 3e 7e 3e a8 bd 2c be 51 96 d0 3d b6 59 fa 3d
       0.24828641 -0.16869223 0.101849206 0.12224142
000200 a1 c9 22 3d 85 a9 92 3e 8b cb ac 3d d2 fc 2c bd
       0.03974307 0.28644958 0.0843726 -0.042233296
000210 72 94 86 be 04 9e f8 be 2e 85 9a 3e 09 66 bd be
       -0.2628513 -0.48558056 0.30179733 -0.3699191
000220 55 9c d0 3d e2 17 46 be 1a aa 8e 3d 11 05 0e 3a
       0.10186068 -0.19345048 0.06966038 0.0005417625
000230 82 4b 2d be f7 6d 82 3e 9c c0 55 bd 7e ba 7b be
       -0.16923335 0.25474522 -0.05218564 -0.2458286
000240 07 b3 a9 bd ce 04 06 be 7f e5 e4 bd 74 8e 4d 3e
       -0.082861 -0.1308777 -0.111765854 0.20073873
000250 97 84 73 3c 8c dd 84 be 51 f1 8c bd d9 07 c1 3e
       0.014863155 -0.25950277 -0.06881965 0.377013
000260 3e d4 1f 3d 2f ee 14 be 28 60 71 3d bb 67 b4 3e
       0.03902077 -0.14543985 0.058929592 0.3523539
000270 d7 55 cf 3e b9 12 ec 3d ed 10 ac be b8 ef 67 be
       0.40495178 0.115270086 -0.33606663 -0.22650039
000280 0c 0b aa 3d 16 ed 30 be 57 c8 01 be f4 ad 9a 3e
       0.08302888 -0.17277941 -0.1267408 0.3021084
000290 22 8b 06 be 81 3f 91 3c e7 f9 96 be d3 5c 84 be
       -0.13139012 0.017730476 -0.29487535 -0.2585207
0002a0 7a c4 98 bd e6 b7 dc bc ae e6 00 be 7f 10 aa 3c
       -0.0745935 -0.026943158 -0.12587997 0.02075982
0002b0 43 93 83 3e 04 76 0b 3e 15 14 e5 3d f8 b9 01 be
       0.2569829 0.13619238 0.11185471 -0.12668598
0002c0 c3 f9 96 3e 76 9e 05 bc 9b c1 8d be d8 61 3a 3e
       0.29487428 -0.008155456 -0.27686772 0.18201387
0002d0 be dc f8 3d 60 96 e9 bd 4e a9 c5 3e ff c6 40 be
       0.12151478 -0.11405635 0.38605732 -0.18825911
0002e0 ba 74 8f be da 5a 08 3e 36 2c 4d bd eb fb b3 3e
       -0.28018743 0.13315907 -0.05009099 0.35153136
0002f0 33 8e 10 be db 25 8d bc 6b e6 45 3e 90 be 27 3e
       -0.14116745 -0.017229965 0.19326179 0.16381288
000300 55 21 22 bf 49 f7 12 be 76 cd d8 3e 48 b4 34 3e
       -0.6333211 -0.14352144 0.42344254 0.17646897
000310 ea 9a 1d 3d 53 24 6f 3e 0c 94 19 be 2e 6c bd 3e
       0.038477816 0.233537 -0.14997882 0.36996597
000320 a7 cd 9c be 2d 37 1a 3e 65 29 57 be 59 c9 4a 3e
       -0.3062565 0.1506011 -0.21011885 0.1980337
000330 ea 06 6b 3d cd 89 d1 3d c0 03 04 bd 48 ad 5e 3e
       0.05737964 0.102313615 -0.03223014 0.21745789
000340 4d ba 02 3e 2e 11 47 be 7e d3 08 be cc 73 11 3f
       0.1276638 -0.19440147 -0.13361928 0.56817317
000350 09 5f ac 3d d7 fd 38 3b 33 f7 05 bf 29 df 98 3d
       0.08416564 0.0028227472 -0.5233032 0.074644394
000360 15 01 fa 3b e3 3a 52 3e d9 9b 0a be 90 14 b9 3e
       0.0076295235 0.20530276 -0.13536014 0.361485
000370 b3 3e b7 be 1f 29 32 3e 74 40 83 3e 9b b5 e6 bd
       -0.35790023 0.17398499 0.2563511 -0.11265107
000380 f8 dc 45 be 7f 3c c5 3d 7c e6 26 be d3 d2 57 3e
       -0.19322574 0.09630679 -0.1629886 0.21076517
000390 4d 68 bc be 4d 18 de 3d 33 87 a9 bd b5 d4 16 3e
       -0.36798325 0.10844479 -0.0827774 0.14729579
0003a0 d9 f0 22 3d 29 17 dc 3e 5b 4a ba 3d d6 d2 3b 3e
       0.03978047 0.4298642 0.090962134 0.18342146
0003b0 73 ca b4 3e a2 bc 2b 3c c8 7d bd 3e f4 be 7b 3e
       0.35310706 0.010481985 0.37010026 0.24584562
0003c0 80 c7 bd 3e fc 2c 4c be 14 19 49 bb fd 26 ef bd
       0.3706627 -0.19939035 -0.0030685114 -0.11677358
0003d0 c1 72 f3 bc c1 82 d3 3d ae 95 14 3e 2a bd 27 be
       -0.029717805 0.10327674 0.14510223 -0.16380754
0003e0 50 a1 1f be c5 cc c9 bd 1e e0 24 bc 4c f0 03 3e
       -0.1558888 -0.0985351 -0.010063199 0.12884635
0003f0 60 a0 21 3e 92 fc 16 3e 1d e7 ae be fc 59 6a 3d
       0.15783834 0.14744785 -0.341607 0.057214722

fc3.bias f4 [2]
000000 7b 1e 9e bb da ed dd bd
       -0.004825411 -0.10836382
