model_dir/finished_reward1.514-agent-0-episode-2036.pt (torch_old, 959376 bytes, 33 tensors)

fc1.weight f4 [256, 24]
000000 4e 3e fb 3d b2 5f 9b bd f2 19 77 3c 45 7e 70 3e
       0.12267743 -0.07586612 0.015081869 0.23485668
000010 f8 69 5a be aa a9 f3 3d 97 6c 4f 3c 24 b9 78 3e
       -0.21329486 0.11897595 0.012660167 0.24289376
000020 da 4f aa 3b b6 1b 6c bc 0a 79 28 3d c0 d5 b5 3d
       0.0051975073 -0.014410904 0.041131057 0.0887866
000030 a3 99 0f 3e f7 60 4f be b0 c4 f8 bc 75 27 77 3d
       0.14023452 -0.20251833 -0.030367225 0.060340364
000040 7a 3a 87 3c b3 aa 25 3d 39 94 48 3e 48 b1 59 3e
       0.016507376 0.040445995 0.19587792 0.21259034
000050 4c da 83 bb 6e 05 cc be bf 65 89 bc 34 f2 79 3d
       -0.0040238257 -0.39847893 -0.01677215 0.061022
000060 e4 46 de bc 09 56 28 be b8 08 30 3d 02 18 89 bc
       -0.027133413 -0.1643907 0.042977065 -0.01673508
000070 08 53 b9 be 96 44 39 bd 03 9d b1 bc 1c 0a 87 3d
       -0.3619616 -0.045231424 -0.021681314 0.06593725
000080 65 41 1b 3e 5f b4 b9 be d1 60 54 be 1b 4f 56 be
       0.15161665 -0.36270425 -0.20740058 -0.20928614
000090 a8 5d 01 bd 8b eb f2 3b a2 9e 97 3d 33 a0 52 be
       -0.03158346 0.007413333 0.07403304 -0.20568924
0000a0 ac 54 2c 3e 60 8a a4 be d2 70 2a 3e e3 8f 3a 3d
       0.16829175 -0.32136822 0.166446 0.045547377
0000b0 ce c8 c4 be 7b 60 e6 3e 58 85 c2 bd 0a 46 d3 3d
       -0.38434452 0.44995484 -0.094980896 0.10316093
0000c0 6a 98 d6 bd 59 fa a1 bc 50 bf 85 be 34 d1 53 be
       -0.104782894 -0.019772695 -0.26122522 -0.20685273
0000d0 ad 66 b9 3d cd 30 a4 3d a3 a7 0d 3e 16 90 5d 3d
       0.09052787 0.080171205 0.1383348 0.05409249
0000e0 f2 dc 4a bd 59 a7 0f be 31 e7 52 3d bf 49 69 bc
       -0.049527116 -0.14028682 0.051490013 -0.014238774
0000f0 91 1a 45 be eb 7e de 3c 26 59 51 3d 91 db d3 3d
       -0.19248416 0.027160129 0.05111041 0.10344613
000100 f9 d8 10 be 89 ab 55 3b 6b f7 9f bd 30 87 82 3c
       -0.14145268 0.0032603464 -0.07810863 0.015933603
000110 9e 0c 3f be 11 8a 5e bf 0d 19 17 3d be e6 7c bd
       -0.18657157 -0.8692942 0.036889125 -0.06174349
000120 7e 5a ca 3d 7c b4 33 3d 35 cc bd 3d 5c 2f 9e 3d
       0.09880541 0.043873295 0.09267465 0.07723877
000130 a3 58 61 3d 34 bc 06 3e 33 50 27 be e3 56 0a 3e
       0.05501617 0.13157731 -0.16339187 0.13509707
000140 8a 01 09 be 6a 99 97 bd fb 1e 3a bd 86 8a c6 3d
       -0.13379493 -0.07402308 -0.0454397 0.0969439
000150 75 86 c0 3d ba b7 2a be b0 11 75 be 79 81 8f 3e
       0.09400646 -0.16671649 -0.23932528 0.28028467
000160 aa 56 b3 bd 96 40 3b 3e 43 18 0c 3e 1a a2 83 3d
       -0.08756764 0.18286356 0.1368113 0.06427403
000170 60 eb 24 3c 87 b7 17 be fe 1d 86 bd fd c3 f6 3d
       0.010065883 -0.14816104 -0.06548689 0.120491005
000180 2c 67 8a 3d b4 46 a7 3e 2d ab 0b be 89 99 9f 3c
       0.0675796 0.3267113 -0.13639517 0.019482391
000190 2f 2a ae 3e 52 ee 49 be 84 2e 86 3d a6 ba 2d 3e
       0.3401656 -0.19719818 0.06551841 0.16965732
0001a0 87 e3 cb bc 48 6e 83 3d 19 e1 a3 3e 12 6e 10 be
       -0.024888767 0.06417519 0.32007673 -0.14104488
0001b0 6f 85 68 3e a2 f1 ed bd bc 57 42 3e b7 ba 49 3a
       0.22707151 -0.116183534 0.1897878 0.0007695364
0001c0 d6 85 9a 3e 1e 5a 9a 3d e0 4d 0a 3e 5a 42 83 3d
       0.30180234 0.0753672 0.1350627 0.0640914
0001d0 94 af 6d 3e c0 5e 3b 3e 11 6d 1c bd 38 e0 70 be
       0.23211509 0.18297863 -0.03818995 -0.23523033
0001e0 6e 17 75 bd 16 51 0d be 45 80 34 3d a0 b9 c5 be
       -0.059836797 -0.13800463 0.04406764 -0.38618183
0001f0 9a af 78 3e c0 e5 66 bd fb dc b3 be 73 eb 99 be
       0.24285737 -0.05637145 -0.35129532 -0.30062446
000200 f2 79 2e 3e bd dd 34 3d 40 e1 4c be 89 7b 50 3d
       0.17038706 0.04415678 -0.20007801 0.050899062
000210 df 85 cf 3e 31 b8 0d 3e c3 c6 5c 3d f3 4d 1b 3e
       0.40531823 0.13839795 0.05390049 0.15166454
000220 19 6d 0e 3e ae 6b 06 be 85 a1 be bd 89 59 47 bd
       0.13908805 -0.13127014 -0.09308151 -0.04866937
000230 19 cc b6 3e b5 a9 70 3d 2e 01 a1 bd 57 2a 4a 3e
       0.3570259 0.058755595 -0.07861553 0.19742714
000240 63 c9 3f 3d ba d7 bb bb c8 2d c3 3d d7 d1 0d 3d
       0.046822917 -0.0057325037 0.095302165 0.034623947
000250 e9 c9 3c 3e 90 4f 1a 3e 82 22 56 bd 7a 1e 2c 3e
       0.18436398 0.15069413 -0.052279003 0.16808501
000260 d7 17 51 bd f2 6a a8 3b 79 53 39 be 61 9d 10 be
       -0.051048126 0.005139702 -0.18098249 -0.14122535
000270 a7 24 cd bd 66 e8 8c 3d c3 93 20 3e e5 c7 9c bd
       -0.100167565 0.06880264 0.15681367 -0.07655314
000280 68 d8 4e be 06 85 e3 3c b0 dd 69 3d cf d5 4b 3e
       -0.2019974 0.027773391 0.057096183 0.1990578
000290 eb f9 49 be 02 3b 98 3e d8 1a a9 bd 7b ef ab 3c
       -0.19724242 0.2973252 -0.08257073 0.020988217
0002a0 eb 9f 77 bd d5 c0 0e 3c e3 c7 89 bd 84 0a ef 3d
       -0.060455244 0.008712967 -0.067275785 0.116719276
0002b0 c5 2c 8c 3d bb 1f 9a be 8f bf 4b 3e 38 d9 69 3e
       0.068444766 -0.30102333 0.19897293 0.22836769
0002c0 1b 51 53 3e 45 64 35 3d 3a 7a 0e be 7a c5 19 3e
       0.20636408 0.044285078 -0.13913813 0.15016738
0002d0 0d 54 52 3c ce b3 90 be 60 f3 31 be e0 78 4b bd
       0.012837422 -0.2826218 -0.17377996 -0.049675822
0002e0 ef 0a 02 bd 36 75 85 3e 6d 04 31 be e7 d2 50 be
       -0.03174871 0.26065987 -0.17286845 -0.20392953
0002f0 ae 37 aa 3d 49 3f 4e be 8c f4 9c 3d 19 b5 fc bd
       0.08311401 -0.20141329 0.07663831 -0.12339229
000300 c9 12 01 bd 03 09 6f be 39 5a 84 3c 37 1c 86 be
       -0.031512056 -0.23343281 0.016156303 -0.261934
000310 20 73 a7 bd d3 79 25 be a1 66 8b 3d c9 be 85 be
       -0.08176255 -0.16159754 0.06806684 -0.2612212
000320 90 b8 ec 3d 60 4b cb be 4d da 44 3e 68 69 57 be
       0.1155864 -0.39705944 0.192239 -0.21036303
000330 6e e1 0d bd fd fa 99 bd 80 b3 07 3b 08 ff 0c be
       -0.034638815 -0.07518575 0.0020706356 -0.13769162
000340 34 e8 17 3d 8c a9 05 be 4c e3 00 be 5b a1 1d 3e
       0.03708668 -0.13052958 -0.12586707 0.15393583
000350 78 f7 a6 be 38 ec 1e 3f 52 99 9e 3c 57 52 85 3e
       -0.3261068 0.6207919 0.019360218 0.26039383
000360 5a b1 d9 3c c0 ed 3d be cf db 85 3b 72 d4 c6 3e
       0.026573826 -0.18547726 0.004085041 0.38833958
000370 a7 03 ef bd 76 f0 cf 3e 2f 72 a5 bd 53 40 84 3d
       -0.116706185 0.40613145 -0.080784194 0.06457581
000380 59 24 3d bd dc 0d 59 be 8d 86 a6 bd e3 06 80 3e
       -0.046177242 -0.21196693 -0.08131132 0.25005254
000390 e8 77 64 3e 1d 5e 05 3f 4d 94 9b bd 38 e4 69 bd
       0.22311366 0.5209673 -0.075966455 -0.057102412
0003a0 e4 6e 91 3d 67 3f 22 be f2 55 5f be 21 2e 2e 3c
       0.07101229 -0.15844499 -0.2181013 0.010631115
0003b0 bc 6e 12 be 4c c8 cf 3e eb 9b ca bb 2b ec 4d be
       -0.14300054 0.40582502 -0.0061831377 -0.20109622
0003c0 d1 c5 71 be 19 e0 4c 3e 76 66 f8 3d 74 34 81 3d
       -0.23610617 0.20007361 0.12128918 0.06308833
0003d0 a6 f0 8e be 56 1c 2f be 1f 10 20 be e5 24 9a bd
       -0.27917975 -0.17100653 -0.1563115 -0.07526568
0003e0 f0 bd 37 be e4 a5 aa 3e 61 66 31 3e 77 e0 85 bd
       -0.17943549 0.3332969 0.1732421 -0.06536954
0003f0 f3 79 4d bd 98 3b 07 bc 74 86 91 3c 55 39 c9 bd
       -0.050165128 -0.008253954 0.017764308 -0.09825388

fc1.bias f4 [256]
000000 86 10 c9 3d 0e 2f 3a 3e d7 bd a8 bd 5a dc 2e 3e
       0.09817605 0.18182012 -0.08239334 0.17076245
000010 64 97 92 be d4 07 a2 bc 16 20 d3 3d e6 52 2e 3d
       -0.28631127 -0.019779123 0.10308854 0.042559527
000020 51 38 a4 3c 1a a0 90 3e 33 43 15 3e 20 78 fe bd
       0.020046385 0.28247148 0.14576416 -0.12425256
000030 c1 bd ee 3d 93 ca b7 bd f8 ef 5c bc cf 7a 92 bd
       0.116572864 -0.08974185 -0.013484947 -0.0715233
000040 da 06 4c bd 94 b8 07 3c d1 61 59 bc 36 39 0c be
       -0.04981122 0.008283753 -0.01326795 -0.13693699
000050 a7 3a 4c be 87 49 38 3e 67 61 f2 3d 75 91 a7 3e
       -0.19944249 0.17996798 0.11834984 0.32728162
000060 ea 5d 8f bd 13 e5 8e 3d 99 88 46 be 9e 26 d2 3d
       -0.070003346 0.06977286 -0.19388045 0.10261272
000070 53 51 7c 3e 11 2d 54 3c bd b6 7d bc 84 b2 8d bd
       0.24640398 0.012950198 -0.015485463 -0.06918815
000080 68 65 5d bd d0 fb 15 be 6b d8 93 bd 8e ff 42 3e
       -0.054051787 -0.1464684 -0.07219013 0.19042799
000090 db f5 1a be 38 7a 85 3d dc 1a fd bc ca 5c 4e be
       -0.15132849 0.06517452 -0.030896597 -0.20152584
0000a0 d6 63 19 be 7a db 14 3a 84 ef 6d 3d 32 25 a3 bd
       -0.1497949 0.00056784565 0.058089748 -0.07966079
0000b0 0f ef 2e be 1c 0a 73 bd 87 39 85 3e 1e 75 d5 bd
       -0.17083381 -0.059335813 0.26020452 -0.10422729
0000c0 f2 b6 d0 3a fe e0 06 3d 2a d5 da bd ad 99 31 be
       0.0015923663 0.032929413 -0.10685189 -0.17343779
0000d0 6d c8 bd 3d ea dc cd bd ca 5b 45 bd 21 df d0 3d
       0.09266744 -0.10051902 -0.04818324 0.101988085
0000e0 f4 3b 26 3d 3a d8 85 3b c4 74 3a 3e c5 d8 0e be
       0.04058452 0.004084614 0.18208605 -0.13949879
0000f0 6f f9 b5 3d 9a 9f 21 3e fe 68 09 be ea 29 e3 3c
       0.08885466 0.1578354 -0.13418958 0.027729947
000100 7a 97 e9 bd d7 fd 51 be 71 67 45 be 08 2a f6 3c
       -0.11405845 -0.20506988 -0.19277741 0.030049339
000110 a8 a2 39 be 85 5a a7 3d de 2a 1c bd d3 e4 40 be
       -0.18128455 0.08171562 -0.03812682 -0.1883729
000120 96 ed 79 be 63 a5 1b 3d 28 6f c9 bd 06 9c f1 3d
       -0.24407038 0.037999522 -0.098356545 0.11797337
000130 cb ca fe 3d 79 eb 2a be c5 c3 45 3e 4a 48 2f 3e
       0.124410234 -0.16691388 0.19312961 0.1711742
000140 85 de 28 be 9f dd ba bd 09 c0 0b bb b7 00 28 be
       -0.16491134 -0.09124302 -0.0021324179 -0.16406523
000150 6a d8 e5 bd d4 ca c1 bd dc f3 a6 3d df bb 05 be
       -0.11222918 -0.094625145 0.08151981 -0.13059948
000160 43 d3 34 be cf 18 02 be 4a 6a 62 3d 65 4d cc bd
       -0.17658715 -0.12704776 0.055277146 -0.09975699
000170 20 e3 30 be ec 81 53 3e 13 49 59 be 22 83 58 3e
       -0.17274141 0.2065503 -0.21219282 0.21143773
000180 fe fe 36 3e 12 49 34 bd bb b8 40 3d ae 55 57 be
       0.1787071 -0.044014998 0.047051173 -0.21028778
000190 2e 84 2b 3e 65 c9 f1 3d 3a 40 ba bd 44 77 3e 3e
       0.16749641 0.11805991 -0.090942815 0.18600184
0001a0 35 f5 04 bd fa 9c 62 3c f3 9a 37 3e 7e 52 9c 3d
       -0.03246041 0.013831371 0.17930202 0.07632922
0001b0 0a fb 9e bd 52 46 01 be e0 e4 19 bd 5d cd bb bd
       -0.07762726 -0.12624481 -0.037571788 -0.09170029
0001c0 8c f5 6e bd 1d 7c ae be 4b 55 a2 3d 35 47 24 be
       -0.05833964 -0.34079066 0.079264246 -0.16042788
0001d0 64 07 5c be 85 1e df 3d a7 17 53 3e 74 bc f8 3d
       -0.21487194 0.10894493 0.20614491 0.121453196
0001e0 29 9e f0 3b 52 3f 78 3e 05 ce 4d be 0d b7 07 3d
       0.007343073 0.24242905 -0.20098121 0.033133555
0001f0 91 05 f1 3c 46 ef 33 be cd ef 55 3e 60 c7 c8 3b
       0.0294216 -0.17571744 0.20892258 0.006127283
000200 f7 e3 31 3e da 48 06 3e 06 98 85 3d 09 02 12 be
       0.17372118 0.13113728 0.06523137 -0.14258589
000210 82 e3 90 3d 12 c1 a4 bc 3e a8 04 bd 2e e3 07 3e
       0.07074644 -0.020111594 -0.03238701 0.13270256
000220 ac 54 8c bd 87 83 8d 3d 03 70 52 3e 0d eb 62 3e
       -0.068520874 0.069098525 0.20550542 0.22159977
000230 f9 a1 83 3d 93 64 ab 3d c9 83 50 be 9b fc 52 3d
       0.06427378 0.083687924 -0.20362772 0.051510435
000240 59 c9 a3 3d a3 22 c6 3d 19 04 57 bd de 74 03 be
       0.079973884 0.09674575 -0.052494142 -0.1283755
000250 bd 8c 51 be a5 6e d8 3b 39 c6 3b 3e 2b f9 40 be
       -0.20463844 0.0066049867 0.18337335 -0.1884505
000260 20 44 ca 3d 0b 98 30 3e 61 44 0a 3e a5 5e c5 3d
       0.09876275 0.172455 0.13502647 0.09637193
000270 7d 4a 79 bd fe e1 b8 3e 23 63 e5 bc c1 e0 69 bd
       -0.060862053 0.36109918 -0.028001374 -0.057099108
000280 45 19 22 bc eb 05 4b be 82 30 25 be f4 5a b8 3d
       -0.00989372 -0.19826476 -0.16131786 0.09001723
000290 27 d4 a6 3d 81 8a 89 be 0b 26 29 bd eb a7 26 bd
       0.081459336 -0.26863483 -0.041296046 -0.040687483
0002a0 eb c8 2e be 48 a3 21 be 22 e1 1f 3e 19 63 16 3e
       -0.17068832 -0.15784943 0.15613225 0.1468624
0002b0 95 02 f0 bc c7 8f 72 be 34 05 21 3e c0 1e 1d be
       -0.029298106 -0.23687659 0.15724641 -0.15343761
0002c0 8f 6d 06 be cb ca d4 bd 65 48 3d be 46 dd 0a 3e
       -0.13127731 -0.10390242 -0.18484648 0.13560972
0002d0 d7 b0 4e 3e 1e e4 34 be ec 4a 63 3e e6 49 94 bd
       0.20184647 -0.17665145 0.22196549 -0.072406575
0002e0 e5 27 07 be 41 50 aa bb 1c 41 01 be 6f 10 07 3e
       -0.13198812 -0.0051975553 -0.12622494 0.13189863
0002f0 0c 09 1c 3e 22 0d 04 be 27 05 17 bc a3 92 a2 3c
       0.15237826 -0.12895635 -0.009217537 0.019845312
000300 cf 37 0d 3d 5d 2b 12 3d 83 f7 e6 3c 7d 4d f7 bd
       0.03447705 0.035685886 0.028194195 -0.120753266
000310 b0 f0 98 bd 90 d4 f5 bd bd 18 83 be e5 c3 fa 3d
       -0.074677825 -0.12003434 -0.2560481 0.12244395
000320 a1 9c 6e be c1 5a a1 bd 1c 4d e2 3d 63 4d 2c be
       -0.23301937 -0.07878638 0.11049864 -0.16826396
000330 19 ed a7 bd 5c a2 1a 3e 0c e5 62 bd e2 1d 2f 3e
       -0.0819952 0.15100998 -0.055394217 0.17101243
000340 6f 86 f9 3c e4 23 b1 bd 95 cd 06 3e fb b9 17 3e
       0.03045961 -0.08649424 0.13164361 0.1481704
000350 a8 2b be 3c dc b0 cf bd fd 57 68 be 83 1a 77 3d
       0.023214176 -0.10141155 -0.22689815 0.060328018
000360 4c a8 2b be a0 7f 85 be 29 e9 1a be bc c5 ef 3d
       -0.16763419 -0.26073933 -0.15128006 0.11707637
000370 7f 86 cb bb d4 35 c3 3d 63 d4 a9 3d 82 db 80 bd
       -0.0062111015 0.09531751 0.08292463 -0.06291868
000380 55 83 43 bd bb ea be bb cd c7 e7 bd 54 b0 75 3e
       -0.04773267 -0.005826322 -0.11317406 0.23993045
000390 00 4c cd bd a9 62 ee 3c f2 19 95 bd df c7 7e bd
       -0.100242615 0.02909978 -0.07280339 -0.06220233
0003a0 14 24 0c 3c 22 5e 30 be 47 da 26 3d c0 40 88 bd
       0.008553524 -0.17223409 0.04073551 -0.06652975
0003b0 3a a5 3d be 8c 0e 36 3e ce b2 cd bd 87 7c fe 3d
       -0.1852006 0.17778987 -0.1004387 0.124260955
0003c0 b6 95 cf bc 61 67 0e 3e 14 17 14 be ff 5a ea bd
       -0.025339942 0.13906623 -0.14461929 -0.114431374
0003d0 39 12 9a 3e a9 2f 6b ba 47 db f0 bd 35 d3 10 3e
       0.30092028 -0.00089716405 -0.11760574 0.14143069
0003e0 83 26 62 bd fa 74 60 3d 43 72 17 be 8a e8 5a 3e
       -0.05521251 0.054799058 -0.14789681 0.21377769
0003f0 3a dc a1 3d b3 22 72 3d 87 be 73 3d f8 25 d3 bd
       0.07903333 0.059115123 0.059507873 -0.10309976

fc2.weight f4 [128, 256]
000000 8f e8 48 bd 89 13 1b 3e d7 71 b7 bc 56 02 d7 bd
       -0.04904991 0.15144171 -0.02239315 -0.104984924
000010 b6 be b7 3d cb 42 cb 3d 58 79 bd 3d 9e c5 bf 3c
       0.08971922 0.09924849 0.0925166 0.02340966
000020 d1 9a 8b 3d c7 24 80 3d 81 28 70 3d 15 34 85 b9
       0.06816638 0.06257015 0.058632378 -0.0002540654
000030 d9 e7 c4 3d c1 0f 90 bd d3 9e 68 bc 06 8e 03 3d
       0.09614534 -0.07034255 -0.014198023 0.032117866
000040 05 1d e1 bc 74 55 78 bd 76 36 32 bd e9 be 2d 3e
       -0.027479658 -0.06062837 -0.04350897 0.16967358
000050 a0 4d 2c bc a1 65 61 3d 07 32 36 3e 89 74 bd 3d
       -0.010516554 0.05502856 0.17792521 0.09250743
000060 03 7a 82 be 0b 98 1e 3c 7c 14 8b 3e 36 b3 ad bc
       -0.25483713 0.009679805 0.27164066 -0.021203618
000070 b0 54 87 3d b0 a1 d3 bd ac dc 0c 3d af af a5 bd
       0.0660795 -0.10333574 0.034390137 -0.080901496
000080 f9 71 04 be 01 d8 ca 3d 20 ee 12 bf 6d 34 a4 be
       -0.12934102 0.09904481 -0.573946 -0.32071248
000090 d7 d3 5e be c3 1b 91 3d e7 07 f0 3e fe f8 ab be
       -0.21760498 0.07085373 0.4688103 -0.33588403
0000a0 5a 0e 6f 3d bb f9 c8 bc c3 e5 00 3e 3b 6d 01 bf
       0.058363296 -0.024533143 0.12587647 -0.505573
0000b0 c8 9a 0e bd 51 25 61 3d 57 2f 01 bd 85 51 84 3d
       -0.03481558 0.05496723 -0.031539287 0.06460861
0000c0 d2 ec 17 be 04 5a ef 3c 4b a4 34 3d 93 ef 68 bd
       -0.14836434 0.029217727 0.044101994 -0.0568691
0000d0 7e 82 d9 3d 80 57 4f 3e 2b fa 61 be ea 93 25 3b
       0.106205925 0.20248222 -0.22068088 0.0025265166
0000e0 8f b0 09 3b c6 01 d6 bc 78 0a 49 3e 61 b0 7c be
       0.0021009778 -0.026123893 0.196329 -0.24676658
0000f0 96 1b 57 bd 64 f5 37 3d 4f a9 1e bd 9b f4 74 3d
       -0.052516542 0.044911757 -0.038735684 0.059803586
000100 77 f4 1d be 31 e3 30 bd 00 d4 94 3d 21 cf 04 bd
       -0.15425287 -0.043185417 0.07266998 -0.032424096
000110 fd e3 c4 3d e6 d2 9e bc 3e 7d 67 bc d0 b3 a1 be
       0.09613798 -0.019387674 -0.014128981 -0.315825
000120 d9 d2 d6 bc fb 72 8c 3e 94 70 23 be 7c 11 3f 3d
       -0.026223587 0.27431473 -0.15960914 0.046647534
000130 4d 94 44 be 86 63 d0 bc 4c cd b7 bd 49 49 4b bd
       -0.19197197 -0.025438081 -0.08974704 -0.049630437
000140 5c c3 3d be ef 55 e2 bd 9c e5 a6 bd d7 f8 72 be
       -0.18531555 -0.11051547 -0.08149263 -0.23727737
000150 73 50 99 3d d2 bf 98 3d b0 52 4a bd ba 30 2e bd
       0.074860476 0.07458462 -0.049395263 -0.042526938
000160 2f 2e cd bd e9 da 03 be 0a 99 80 bd c0 4e 5d be
       -0.100185744 -0.12876476 -0.0627919 -0.21612072
000170 6b 45 35 3e e5 6b 49 be 2e ad 53 bd 54 c0 83 be
       0.17702262 -0.19670065 -0.05167883 -0.25732672
000180 a0 69 31 3b d8 3f 55 be 83 bd 04 3e f2 4f bd bd
       0.0027071014 -0.20825136 0.12962918 -0.09243764
000190 f1 d6 31 bd 29 33 d0 be 1d 90 fa bd 19 85 8b 3e
       -0.043417875 -0.40664032 -0.12234519 0.27249983
0001a0 80 d1 61 bb d9 2f ba bd 02 13 ee 3d a7 26 b8 3d
       -0.0034457147 -0.090911575 0.11624719 0.08991747
0001b0 23 4c 4d bd 97 b0 58 be 3b 42 53 3e 39 b7 05 be
       -0.050121438 -0.21161114 0.20630734 -0.13058175
0001c0 e2 52 95 3c f5 a4 9a 3d ad 1b 2c bd 2f aa e3 bd
       0.018227998 0.07550994 -0.04201858 -0.11116444
0001d0 c0 63 5a bd f2 7a d7 bd f5 e1 cd bd 3f 22 8b 3e
       -0.053317785 -0.10521497 -0.100528635 0.27174565
0001e0 ba a9 dd b9 6c 72 68 3c c2 f1 cd 3d f2 e6 0b be
       -0.0004227886 0.014187437 0.10055877 -0.13662317
0001f0 ed e8 43 be 0a 68 23 3d a9 63 84 bd 3b 6c 04 bb
       -0.19131823 0.03989414 -0.06464321 -0.0020206112
000200 44 4f 6d 3d 31 b3 85 bd da 6d 6d 3d 31 2a 2c 3e
       0.05793692 -0.06528319 0.05796609 0.1681297
000210 f9 16 53 3e ff 92 d5 bc e2 ff 64 3d fc 10 d3 bd
       0.20614232 -0.02607107 0.05590809 -0.10305974
000220 f1 5d 52 3d df a6 12 be 03 f8 84 be d6 e6 d7 bd
       0.05135912 -0.14321469 -0.25970468 -0.10542075
000230 aa ec c5 bb 2e d2 1a be 3d d8 eb be 48 7b 27 be
       -0.0060401754 -0.1511924 -0.46063414 -0.16355622
000240 41 5a 91 be ba 98 2b bd 04 92 1f bd d9 72 68 3d
       -0.2838917 -0.0418937 -0.03895761 0.056750152
000250 fe ce 89 bc 81 c7 21 be 44 82 c7 bd 22 99 35 be
       -0.016822334 -0.15798761 -0.09741643 -0.17734197
000260 b8 46 04 bc b5 d1 ac 3c a2 ca 0a bc 1e e7 5b bd
       -0.008073501 0.02109609 -0.008471163 -0.053687207
000270 e5 c4 c9 be d2 45 ed 3d aa 92 b5 3d a5 7b c2 bd
       -0.3940803 0.11585583 0.088658646 -0.094962396
000280 f9 dd 00 3f 63 6c 32 bd 92 54 29 3d fc 49 e7 3d
       0.50338703 -0.043560397 0.04134042 0.11293408
000290 60 cb 4e bf 13 a8 7e 3d 59 f3 f2 bb 34 e2 f5 bb
       -0.80779076 0.062172007 -0.007414263 -0.007503772
0002a0 72 52 5f bd 57 37 d8 3d af ac 84 3e e3 ad 6a 3c
       -0.054521985 0.1055743 0.25912997 0.014323684
0002b0 3d df c8 3d 39 02 a5 3c e6 71 00 bb 96 55 c5 3e
       0.09808204 0.020142661 -0.0019599139 0.3854186
0002c0 e3 fe df 3b 9a 84 e2 3d 70 e2 9a 3c 13 a9 9d 3d
       0.006835805 0.11060448 0.018906802 0.07698264
0002d0 04 c6 1f bd f8 33 63 3e 4c 5d 1e 3e da 0f ae 3c
       -0.0390072 0.22187793 0.15465277 0.021247793
0002e0 20 84 ec 3d 2e 84 1c bd e4 00 9d bd 5f 4c c0 bb
       0.11548638 -0.038211994 -0.076661855 -0.005868479
0002f0 6e cc 84 be d5 a4 2d 3c a2 3b b4 bd 00 40 d6 bc
       -0.25937217 0.010598381 -0.088004366 -0.026153564
000300 42 66 a0 be 14 be 5e be 78 1b 32 3e a1 6c 01 bd
       -0.31328017 -0.21752197 0.17393291 -0.031597737
000310 67 49 03 be e6 b4 16 3e 7f d2 e3 bd a9 d9 be 3d
       -0.1282097 0.14717445 -0.11124133 0.09318859
000320 d5 1a d1 be 95 30 3a be 5a a6 08 3d e4 a4 22 3e
       -0.40840784 -0.18182595 0.03336177 0.15883213
000330 f9 2c cf bd 90 28 c9 bc 44 a0 fc bd e1 52 e4 be
       -0.10116 -0.024555475 -0.12335256 -0.44594482
000340 ca 1b 6d be e9 57 c4 3d 9f a1 2d 3e 7a be 65 3d
       -0.23155132 0.0958708 0.16956185 0.056089856
000350 cf f3 cb 3d b0 bf 79 3d 7a 01 2f 3d 90 78 27 be
       0.09958612 0.060973823 0.042726018 -0.16354585
000360 85 7e 97 3e 56 85 3b bc a5 40 fa bd 61 8a 30 bd
       0.29588714 -0.011445364 -0.12219361 -0.04310072
000370 f8 f1 82 3d be 49 9f be 12 f8 8c bd 82 8f d5 bd
       0.06393808 -0.31110948 -0.06883253 -0.104277626
000380 13 dd 81 bd f5 6f c8 be 77 9f a3 3d d7 5b f2 be
       -0.06340995 -0.39147916 0.079894 -0.47335693
000390 13 3d aa bc 80 63 57 bd e6 08 15 bd 34 a2 06 3e
       -0.020781076 -0.052585125 -0.03638544 0.13147813
0003a0 c5 8c 92 be ce 1e 5f be c0 9e 73 be 44 73 e5 3d
       -0.28623024 -0.21789095 -0.23791027 0.11203626
0003b0 d8 fa ab be 9f 67 52 3e 89 07 d9 bc ac 93 bb 3d
       -0.33589816 0.20547341 -0.02649285 0.091590255
0003c0 79 cf 9e 3d 9b 71 2a be 48 78 9e be 39 e5 e4 3c
       0.07754416 -0.166449 -0.30951142 0.027941333
0003d0 e3 60 35 3e 63 ec 95 be 19 85 33 bd 4d 92 11 3d
       0.1771274 -0.2928191 -0.043828104 0.035539914
0003e0 ec d8 97 bd 6d 77 84 3e eb c2 44 3e 83 a2 1b 3e
       -0.074144214 0.25872365 0.1921498 0.15198712
0003f0 6d c0 61 3d 60 6b 92 3c c3 d8 14 3e 53 11 16 3e
       0.055115152 0.017873466 0.14535813 0.14655046

fc2.bias f4 [128]
000000 14 29 54 bb a0 96 54 3b 2e 60 24 bd 8f 8d a6 bd
       -0.0032373117 0.0032438412 -0.040130787 -0.08132469
000010 08 b7 3c 3c b8 e3 b9 3c 34 4e 68 bc 81 fc 23 bc
       0.011518247 0.022691593 -0.014178801 -0.010008932
000020 57 a3 a3 3d 55 d5 04 3d 2f 56 8e 3d 04 ba 42 be
       0.07990139 0.03243001 0.06950032 -0.19016272
000030 44 2d 78 bb fa 47 a9 bd db 16 e5 bd 35 e5 a0 3d
       -0.0037868777 -0.082656816 -0.11186 0.07856218
000040 13 cc 82 3d 75 08 d9 bc 89 b7 da 3c 9e 60 05 be
       0.0638658 -0.02649329 0.026698845 -0.13025138
000050 4f 93 d7 3d 23 8f 15 bc 0d 40 9d 3c 1a 22 1a bd
       0.10526144 -0.009128365 0.01919558 -0.037630178
000060 52 af b7 bd aa 50 88 bd 8a 06 47 bd 4d e4 ac bc
       -0.089689866 -0.066560104 -0.04859022 -0.021104956
000070 06 26 0c bd 49 19 c0 3d 5a f0 3a bd e6 0c 83 3d
       -0.03421595 0.09379823 -0.045639373 0.063989446
000080 2d 4e dc bc d5 93 ac bc de 13 a4 3d 26 01 ca 3d
       -0.026892746 -0.021066586 0.08011602 0.098635
000090 09 6e 50 bb 24 52 b1 bd 87 57 d0 3c c1 3d 89 3d
       -0.0031803867 -0.08658245 0.025432361 0.06701232
0000a0 c2 46 31 3d d9 8b ad 3c 26 c6 bf 39 f1 5e 70 3d
       0.04328037 0.021184849 0.0003657799 0.058684293
0000b0 04 6b 1d bd 07 88 52 bd d7 23 ca bd 98 62 1e bc
       -0.038432136 -0.051399257 -0.09870117 -0.009667061
0000c0 ae 22 7e 3d 6e fc c1 bc ce 94 21 bd 34 e7 31 3c
       0.062044792 -0.023679938 -0.03944855 0.010858346
0000d0 7f 8e 4b b8 25 60 1b bd 45 ac 12 bd a9 1b 84 bd
       -4.853168e-05 -0.037933487 -0.03580882 -0.06450588
0000e0 57 a5 19 be 2f dc c0 bd 8a 74 85 bd 95 fe 32 bc
       -0.15004478 -0.09416997 -0.06516369 -0.010924955
0000f0 8d 07 ce 3a 0e c8 dc 3c 77 d9 9f bc 01 06 b4 bd
       0.0015718803 0.026950862 -0.019512875 -0.08790208
000100 4f 55 11 3e 21 72 14 3d bf cf a2 bb d9 36 0d bd
       0.14192699 0.036241654 -0.004968613 -0.034476135
000110 42 2d 8a bc 38 fe 08 bc 85 63 9d 3c 7d df f7 3c
       -0.016867284 -0.008361392 0.019212494 0.030257935
000120 3a 5a 10 bd ed 86 9b bd 2a f2 6c bc 35 df f1 3c
       -0.035242297 -0.075940944 -0.014462033 0.029525379
000130 cc 51 ec 3b 44 17 51 3c c2 2a 23 3c 60 37 c8 bd
       0.0072118994 0.012761895 0.009958925 -0.09776187
000140 11 ae e0 3d b6 c6 49 3d cd fc 65 bd 29 72 de 3d
       0.109707005 0.04926177 -0.056149293 0.10861618
000150 c2 87 e9 bc dd 16 b3 bc f0 3d 4e bc 19 12 8b bc
       -0.028507117 -0.021861488 -0.012588009 -0.016976403
000160 c5 80 31 bd 97 96 9c bb 9c f7 c5 bb 51 49 18 bd
       -0.043335695 -0.004778694 -0.00604148 -0.037179295
000170 f7 c2 82 bb 02 3d 1c bd f3 11 4b 3d 69 76 45 3d
       -0.003990527 -0.03814412 0.049577665 0.048208628
000180 bf aa 25 bb 2e 0b a2 3b a8 f3 7e bd 89 94 ce 3d
       -0.0025278775 0.0049451804 -0.062244087 0.100869246
000190 49 f8 c9 3c 7c 58 d6 3d ca de 10 bd a4 fd c0 bb
       0.024654524 0.10466096 -0.03536872 -0.0058896113
0001a0 82 e4 ae 3c 76 54 42 bc 92 c3 8a bd 58 91 ed b9
       0.021349195 -0.011860957 -0.06775583 -0.00045312452
0001b0 01 5f 77 bb d0 c5 c3 bc dd 29 48 3c 0f 73 11 3c
       -0.0037745836 -0.023898035 0.012217012 0.00887753
0001c0 2c 48 8f bc ec 7d 43 bd 6b 4b e5 bd 5d ad e4 3c
       -0.017490469 -0.04772751 -0.111960255 0.027914697
0001d0 13 7a a5 3d d2 a6 93 bb d1 f2 6c 3d e1 a2 53 3b
       0.080799244 -0.0045059705 0.057848755 0.0032293128
0001e0 23 a1 16 bb 20 3a 52 3c ef 09 42 3d ea f2 04 3e
       -0.0022984229 0.012831241 0.047372755 0.1298329
0001f0 50 b4 84 3d af b9 28 3e 5c 3b 56 bd f0 83 60 bd
       0.064797044 0.16477083 -0.052302703 -0.054813325

fc3.weight f4 [2, 128]
000000 79 b7 11 bf 14 df f9 bc 15 83 c0 3e 86 8e 9c 3d
       -0.5692058 -0.03050188 0.37600008 0.07644372
000010 4c a7 9e be a4 81 c5 bc d9 88 68 3e 2e 16 bb bc
       -0.30987012 -0.024109669 0.22708453 -0.022837725
000020 fb 65 94 be 2f 0d 8e bd eb 75 bd be d4 5c 22 3f
       -0.28984055 -0.06936108 -0.37004027 0.63422894
000030 37 27 d2 3d cd ca 20 3f fb 08 d7 3e 0e f9 64 bd
       0.10261386 0.6280945 0.4199904 -0.05590158
000040 a7 e0 95 be 38 f8 ed bc 79 fa 26 bd 2f c1 d4 3e
       -0.2927296 -0.029049024 -0.040766213 0.41553637
000050 79 3e 35 be 2e d2 a0 be 78 a3 a5 be 82 24 56 3e
       -0.17699613 -0.31410354 -0.3235128 0.20912364
000060 50 c2 65 3e 7c 32 13 3e bd cd 87 3e 4c a3 3d 3e
       0.22437406 0.14374727 0.26524153 0.18519324
000070 bb 87 2a 3f de ff 4f bf 5b 65 53 bd 96 7a d4 bc
       0.6661336 -0.812498 -0.051610332 -0.02593736
000080 95 b0 a6 3e 64 cb 9b 3d f7 e9 ff bd f5 1b 16 be
       0.32556596 0.07607153 -0.12495797 -0.14659102
000090 8f cf 9a 3c 36 4d 01 3e fe 85 f4 3d 5e e4 9b bd
       0.0188978 0.1262711 0.119396195 -0.07611917
0000a0 59 7b 6c bc e6 09 dd 3d 13 07 62 bd 37 9b 80 be
       -0.014433705 0.107929036 -0.055182528 -0.2511842
0000b0 fd db 9d 3e 34 d6 15 bf 94 82 9f be a3 b9 76 be
       0.308319 -0.58529973 -0.3115431 -0.24094252
0000c0 b6 1d ac 3e 5a a5 6e bd 0d 45 f3 3d d0 cc 08 3e
       0.33616418 -0.05826316 0.11878405 0.1335938
0000d0 4d 4b 7d 3d 59 1c 4c bf 33 2f 0d bd 9c c8 e0 3e
       0.06183939 -0.79730755 -0.03446884 0.43903053
0000e0 59 ad 9b bc 11 71 b3 3e db 78 47 3e 82 dc 04 bf
       -0.019003557 0.350472 0.19479696 -0.5189897
0000f0 90 6b fe bd c8 52 8a bd fd 3f 96 be 35 e7 84 bf
       -0.1242286 -0.067540705 -0.29345694 -1.0383059
000100 c2 27 90 be f0 68 5c 3d ee e1 06 3f 10 c5 e0 be
       -0.28155333 0.053811014 0.5268849 -0.43900347
000110 83 27 2e 3e 6c df d8 3e e7 3c 48 3c 39 53 1d bf
       0.1700726 0.42357957 0.0122215515 -0.6145511
000120 9c 0c 8f 3d 03 7b 3f bf 02 19 c8 3d f4 c3 ca be
       0.06984827 -0.74797076 0.09770395 -0.39602625
000130 dd 72 53 3e 46 de 9a be a2 d3 ee 3d 47 1b aa 3e
       0.20649286 -0.30247706 0.116614595 0.33223936
000140 12 f3 89 3d 71 02 91 bc 0c b2 17 bf 2d ac 06 be
       0.06735815 -0.01770136 -0.5925605 -0.13151617
000150 14 b9 b1 3d bf 2a 80 3e 97 dd f9 bc d4 ab cc be
       0.08677879 0.25032613 -0.03050117 -0.39974844
000160 e3 56 a4 3e b5 32 5b 3e 98 73 94 bd 96 56 80 3e
       0.3209754 0.21406062 -0.0724861 0.2506606
000170 a5 74 8d 3b 25 35 b0 3e fc 3d 3d 3d 3d 0d 7f bd
       0.0043168836 0.34415546 0.04620169 -0.062268484
000180 28 f5 da 3c 2a f1 00 bf 71 fa 9a bd 5e a2 0d be
       0.026728228 -0.5036799 -0.07567299 -0.1383147
000190 55 f8 86 3e a0 c6 9e be c4 de f0 be 69 10 41 3e
       0.26361337 -0.31010914 -0.47044957 0.18853916
0001a0 b7 fb 2e 3e 42 21 ae 3e a6 a7 11 bf e8 65 99 be
       0.17088209 0.3400975 -0.56896436 -0.2996056
0001b0 60 95 01 3f 57 22 36 3e 41 64 0b 3e 44 03 6c 3e
       0.50618553 0.17786537 0.13612463 0.2304812
0001c0 5b a7 86 3e 11 9e ed 3b 28 9b 60 be e1 14 9f bd
       0.26299557 0.007251509 -0.21934187 -0.07767654
0001d0 58 f3 ed be f3 ed 3a be 71 20 96 3d e2 2a 0f 3e
       -0.4647472 -0.18254833 0.073304065 0.13981202
0001e0 d2 29 2f 3c 1a 69 c1 be cf a1 d8 bd 37 f5 fa be
       0.010691123 -0.377755 -0.105777375 -0.4901521
0001f0 9f 23 e6 3d 62 de cd be da 94 e4 3c 42 bc 9a 3e
       0.11237263 -0.40208727 0.02790301 0.30221754
000200 7c 34 04 3e 88 41 d7 3e 8a dc d4 3e e6 1c bf bd
       0.12910646 0.42042184 0.41574508 -0.09331684
000210 4e a1 1e bf 98 0d 5b be 5a 76 3b bd 7a 86 14 bd
       -0.6196488 -0.21391904 -0.045767166 -0.03626106
000220 eb d0 2b be f3 5d e9 bd 05 a8 c2 3d 12 77 09 3f
       -0.16778915 -0.113948725 0.095047034 0.5369731
000230 80 bc 9f be f6 43 b7 3e f6 9e e4 be 3e 42 ae bd
       -0.31198502 0.35794038 -0.44652528 -0.085087284
000240 da 09 02 bd cb f7 dc bd 06 84 7e be 75 5c a3 3e
       -0.031747676 -0.1078945 -0.2485505 0.31906477
000250 70 c4 99 bd ac c4 46 3e 84 7d a9 be 4b 7d 5d 3e
       -0.075081706 0.19410962 -0.33103573 0.21629827
000260 d9 f6 85 be 35 08 40 be c9 22 c5 3e eb 30 d3 3e
       -0.26164892 -0.1875313 0.385031 0.4124826
000270 b8 2a c5 3c 01 45 13 3e 7d 08 42 be fb ea 58 be
       0.024068221 0.14381792 -0.1894855 -0.21183388
000280 82 8a 9d be 6e 34 aa be ab 86 33 be 20 8f 4f 3e
       -0.30769736 -0.33243126 -0.1753184 0.20269442
000290 6d 9f 75 be 12 e9 b5 bc ce 9d 12 be 44 b5 36 be
       -0.23986597 -0.022205863 -0.1431801 -0.17842585
0002a0 50 0b 0d be a5 5d 02 be c7 b7 01 bf 9d 40 b5 3e
       -0.13773847 -0.12731035 -0.50671047 0.3540086
0002b0 6e 0b a4 3e ab 9f 12 3f c6 d4 2a 3e 32 1f 82 be
       0.3203997 0.57274884 0.16682729 -0.25414425
0002c0 55 e1 4f 3e bb c2 22 bd bd 02 5e be 30 04 1c be
       0.20300801 -0.03973649 -0.21680732 -0.15235972
0002d0 23 c5 2b 3f b1 b3 02 3f 2f 31 af 3d b4 f5 d7 bd
       0.6709768 0.5105544 0.08554303 -0.10544911
0002e0 b1 58 36 bf 50 0d 4a 3e 4d 19 9d be a6 d9 b3 3e
       -0.7122908 0.19731641 -0.30683365 0.3512699
0002f0 8e ec e5 bd 0d 17 b6 3d 38 fb 6d 3e a6 5c 83 bd
       -0.1122676 0.08891115 0.23240364 -0.06414156
000300 28 5f 92 bc df 99 46 be 9d ea 8f 3e 9c 13 12 3d
       -0.01786764 -0.19394635 0.28108683 0.035663232
000310 57 a5 8f be dd 4f 74 3e 69 45 1f be 22 de 81 3e
       -0.28055832 0.2385859 -0.15553822 0.25364786
000320 14 51 74 be ee f9 a2 3e 8e 25 cb be f1 71 80 3d
       -0.23859054 0.31831306 -0.3967709 0.062717326
000330 cb 8e 87 3e a4 23 4e 3d 47 a4 39 be d1 df 85 3e
       0.2647613 0.05032696 -0.18129073 0.2614732
000340 4f 54 a0 3e b2 2a af bd 02 b7 87 be 6a 09 9a 3d
       0.31314322 -0.08553065 -0.2650681 0.07521327
000350 da 4f aa bd 82 bc 6e be c3 9f f3 bd f5 98 28 3e
       -0.08316012 -0.23314098 -0.118957065 0.16464598
000360 1d 50 fe bd 73 f7 6b 3d 0d 92 10 be e6 7a 6c 3e
       -0.12417624 0.057609033 -0.14118214 0.23093757
000370 a7 57 86 be 2c 2c 07 3f 23 cb 4b 3f e3 a1 e6 bd
       -0.26238748 0.52801776 0.7960684 -0.11261346
000380 48 39 14 be cd 40 89 3e 36 4b 8f be c7 98 d1 3d
       -0.14474976 0.26807252 -0.2798707 0.10234218
000390 52 71 6f bf 1c 64 b0 3e 53 40 24 3b d3 e8 29 3f
       -0.9353229 0.34451377 0.0025062754 0.66370887
0003a0 33 3c e3 3d c2 d4 8d 3c b7 74 6f 3e 51 bc ae 3e
       0.110954665 0.017313365 0.23384367 0.3412805
0003b0 a5 de 27 3f 7f 14 ba 3c b5 67 6a 3e 47 e7 09 3e
       0.65574104 0.022714851 0.22891124 0.13467132
0003c0 57 17 2a 3f f1 9d 3f be bd e9 5b 3f 94 78 ce bd
       0.66441864 -0.18712594 0.8590353 -0.10081592
0003d0 96 32 15 3d 22 c0 f8 3d 34 14 b8 bc 34 bb 00 bf
       0.036425196 0.121460214 -0.022470571 -0.5028565
0003e0 73 ea 31 be d7 fe 9f be c7 cb 39 3d 13 d4 91 3d
       -0.17374592 -0.31249115 0.045360353 0.07120528
0003f0 6c b2 49 3e cf 5d 30 3e 30 cd bb be e1 8d 08 3f
       0.19696969 0.17223285 -0.36679983 0.5334149

fc3.bias f4 [2]
000000 e3 63 80 bc 13 78 b3 bd
       -0.01567263 -0.08763137

exp_avg f4 [256, 24]
000000 3e 75 13 38 31 b8 18 b7 d9 ee 4a b9 9e b2 25 b8
       3.515672e-05 -9.102791e-06 -0.00019353199 -3.9505416e-05
000010 86 f4 f8 b8 77 70 be b6 d9 ee 4a b9 9e b2 25 b8
       -0.000118711076 -5.675534e-06 -0.00019353199 -3.9505416e-05
000020 c6 67 b2 36 11 bf 8c b7 d2 94 8f b9 74 9b 97 b8
       5.316894e-06 -1.6778273e-05 -0.00027385965 -7.2291965e-05
000030 ba 9f 00 b9 ad 5c 70 b7 d2 94 8f b9 74 9b 97 b8
       -0.00012266534 -1.43266925e-05 -0.00027385965 -7.2291965e-05
000040 db 77 14 37 4c 87 ab b7 63 55 32 38 f4 d8 2e b8
       8.849393e-06 -2.0447791e-05 4.251803e-05 -4.1686886e-05
000050 b0 22 f3 b8 d3 d1 88 b7 63 55 32 38 f4 d8 2e b8
       -0.00011593604 -1.631017e-05 4.251803e-05 -4.1686886e-05
000060 42 a8 e3 36 13 8e d8 b5 c6 15 8f 37 66 9a 18 b6
       6.784715e-06 -1.6134603e-06 1.7057067e-05 -2.2739637e-06
000070 d2 fb df 37 ca 4b 69 35 c6 15 8f 37 66 9a 18 b6
       2.6700935e-05 8.690955e-07 1.7057067e-05 -2.2739637e-06
000080 a1 25 4c 37 74 4e eb b5 bf 17 5c 38 28 4b 06 b6
       1.2168109e-05 -1.7531697e-06 5.2474203e-05 -2.0011303e-06
000090 34 c0 cb 37 93 9f 2f 36 bf 17 5c 38 28 4b 06 b6
       2.4288987e-05 2.6169917e-06 5.2474203e-05 -2.0011303e-06
0000a0 89 c9 c6 36 bc a1 1b b6 d6 f5 8a b8 33 9d 1c b6
       5.9243216e-06 -2.3190942e-06 -6.626143e-05 -2.3337313e-06
0000b0 e0 8e a0 37 3a eb 80 35 d6 f5 8a b8 33 9d 1c b6
       1.9140018e-05 9.605203e-07 -6.626143e-05 -2.3337313e-06
0000c0 69 48 8f b8 85 62 10 35 20 13 07 b8 03 b0 04 b7
       -6.832259e-05 5.3787545e-07 -3.220432e-05 -7.908794e-06
0000d0 60 30 0a 38 4e 73 09 37 20 13 07 b8 03 b0 04 b7
       3.2946817e-05 8.192683e-06 -3.220432e-05 -7.908794e-06
0000e0 32 58 8f b8 59 06 a8 b5 ae ba 5e b7 cd 1c b5 b7
       -6.835199e-05 -1.2518823e-06 -1.3275696e-05 -2.1590293e-05
0000f0 73 98 23 38 0e 01 e3 35 ae ba 5e b7 cd 1c b5 b7
       3.9004208e-05 1.6913125e-06 -1.3275696e-05 -2.1590293e-05
000100 3a b9 93 b8 dc 8e 41 b6 a1 90 ac b7 d5 33 8c b7
       -7.044007e-05 -2.8842396e-06 -2.0571346e-05 -1.6713437e-05
000110 ff dd 3f 38 d8 ac a0 b6 a1 90 ac b7 d5 33 8c b7
       4.57447e-05 -4.7884932e-06 -2.0571346e-05 -1.6713437e-05
000120 8d 03 13 37 1a ae a0 36 8f ad 36 b9 8e 83 8f b6
       8.7627095e-06 4.7886397e-06 -0.00017421528 -4.277047e-06
000130 44 ee 00 b8 08 6e 1e b6 8f ad 36 b9 8e 83 8f b6
       -3.073948e-05 -2.3607881e-06 -0.00017421528 -4.277047e-06
000140 4c b9 25 37 73 a8 6f 36 7c 00 0c 37 df e3 49 b7
       9.877909e-06 3.5711826e-06 8.344763e-06 -1.2033589e-05
000150 84 68 13 b8 4e 8a 5d b6 7c 00 0c 37 df e3 49 b7
       -3.514487e-05 -3.301207e-06 8.344763e-06 -1.2033589e-05
000160 f0 4f 8e 37 cc 3a 42 36 89 f0 74 38 f0 22 1e b7
       1.6964943e-05 2.8942477e-06 5.839815e-05 -9.425668e-06
000170 b2 b9 1f b8 57 9d f2 b5 89 f0 74 38 f0 22 1e b7
       -3.8081496e-05 -1.8076197e-06 5.839815e-05 -9.425668e-06
000180 68 fc d7 b7 cb f7 16 b6 f7 b6 23 b8 e2 c3 b1 36
       -2.5747533e-05 -2.2495976e-06 -3.9032628e-05 5.297815e-06
000190 5d e7 0e b6 4a 2e d5 36 f7 b6 23 b8 e2 c3 b1 36
       -2.129432e-06 6.3532834e-06 -3.9032628e-05 5.297815e-06
0001a0 5a 3c bb b7 76 ad 02 b6 ca e9 c6 37 02 c7 15 36
       -2.232024e-05 -1.9472477e-06 2.3712306e-05 2.2318568e-06
0001b0 16 37 d2 b5 15 db aa 36 ca e9 c6 37 02 c7 15 36
       -1.5662251e-06 5.0918993e-06 2.3712306e-05 2.2318568e-06
0001c0 d7 bd 9b b7 cc b1 02 b6 a8 1f 1c 38 63 1b 94 b4
       -1.8565841e-05 -1.9475e-06 3.722278e-05 -2.7587075e-07
0001d0 6e 56 fd b4 c1 6a 7a 36 a8 1f 1c 38 63 1b 94 b4
       -4.7187808e-07 3.7315042e-06 3.722278e-05 -2.7587075e-07
0001e0 11 c4 98 38 93 fd 4f 35 d6 1d cb 38 28 cc 9a b6
       7.284445e-05 7.748251e-07 9.685352e-05 -4.6133246e-06
0001f0 2d b4 a2 b8 76 10 21 b7 d6 1d cb 38 28 cc 9a b6
       -7.758322e-05 -9.60018e-06 9.685352e-05 -4.6133246e-06
000200 e8 b8 a3 38 e2 04 6e 35 f0 1f 85 38 73 6e a7 36
       7.806887e-05 8.8669015e-07 6.347883e-05 4.989846e-06
000210 3e 2f ae b8 a0 fd b2 b5 f0 1f 85 38 73 6e a7 36
       -8.305766e-05 -1.3335848e-06 6.347883e-05 4.989846e-06
000220 c9 96 92 38 35 32 e7 35 2e ba d8 b8 81 49 44 37
       6.9899084e-05 1.7225453e-06 -0.00010334361 1.1699624e-05
000230 f4 85 b7 b8 3d 0a bf 36 2e ba d8 b8 81 49 44 37
       -8.751071e-05 5.6934355e-06 -0.00010334361 1.1699624e-05
000240 d2 39 1b b8 5a f3 84 b7 80 bb eb 38 1f b1 25 37
       -3.700873e-05 -1.5848946e-05 0.00011240598 9.876006e-06
000250 fd e5 22 b6 15 ce 75 37 80 bb eb 38 1f b1 25 37
       -2.4273752e-06 1.465112e-05 0.00011240598 9.876006e-06
000260 44 a7 38 b8 b5 99 5c b7 ef 09 9f b8 c4 82 dc 37
       -4.4024797e-05 -1.314881e-05 -7.583561e-05 2.6286936e-05
000270 0d 5c 8d b6 d6 b7 57 37 ef 09 9f b8 c4 82 dc 37
       -4.2128436e-06 1.2857801e-05 -7.583561e-05 2.6286936e-05
000280 0c b5 45 b8 53 9a 4d b7 27 a5 ae b7 32 9e 63 37
       -4.7137073e-05 -1.2254884e-05 -2.0819321e-05 1.3567087e-05
000290 e5 4e fb b6 d1 26 0d 37 27 a5 ae b7 32 9e 63 37
       -7.4895675e-06 8.413293e-06 -2.0819321e-05 1.3567087e-05
0002a0 c0 9c 88 b7 b8 c0 b0 b5 0c 17 be 37 54 3f 97 36
       -1.6285456e-05 -1.316911e-06 2.2660497e-05 4.507523e-06
0002b0 8d 3b b3 b4 34 77 02 37 0c 17 be 37 54 3f 97 36
       -3.3384677e-07 7.776358e-06 2.2660497e-05 4.507523e-06
0002c0 24 65 ce b7 a9 97 5a b5 c3 09 b0 b8 fe 01 9a 36
       -2.4604211e-05 -8.1432023e-07 -8.394152e-05 4.5897896e-06
0002d0 f1 33 8c 35 35 cd c8 36 c3 09 b0 b8 fe 01 9a 36
       1.044593e-06 5.9843537e-06 -8.394152e-05 4.5897896e-06
0002e0 cd b1 d6 b7 b0 6b 01 b5 7d c3 42 36 74 bb 32 36
       -2.5593583e-05 -4.821295e-07 2.9022042e-06 2.663318e-06
0002f0 64 85 25 36 d3 9f 8a 36 7d c3 42 36 74 bb 32 36
       2.466456e-06 4.1313265e-06 2.9022042e-06 2.663318e-06
000300 f5 41 9a b7 48 b6 08 b4 d7 8b f4 b6 94 92 9f b6
       -1.8388944e-05 -1.27323e-07 -7.288046e-06 -4.755633e-06
000310 86 f0 2c b7 78 18 ef 36 d7 8b f4 b6 94 92 9f b6
       -1.0308e-05 7.1256036e-06 -7.288046e-06 -4.755633e-06
000320 85 d5 8d b7 ac e8 d3 b4 71 01 97 37 ac 47 24 b6
       -1.6907938e-05 -3.9471104e-07 1.8001274e-05 -2.4479623e-06
000330 6e ee 40 b7 fd 9f dd 36 71 01 97 37 ac 47 24 b6
       -1.14996055e-05 6.6049383e-06 1.8001274e-05 -2.4479623e-06
000340 fb 0c 86 b7 31 1c ce b5 4e 1c 9a 36 68 20 5b b7
       -1.598009e-05 -1.5356401e-06 4.5928527e-06 -1.3060962e-05
000350 80 30 55 b7 49 6f c9 36 4e 1c 9a 36 68 20 5b b7
       -1.2707082e-05 6.003222e-06 4.5928527e-06 -1.3060962e-05
000360 d0 af 92 b8 33 8d 21 b7 bc 5c af b8 68 82 40 b5
       -6.99457e-05 -9.629223e-06 -8.3619234e-05 -7.171534e-07
000370 2a 71 1c 36 8a b4 4e 37 bc 5c af b8 68 82 40 b5
       2.3311682e-06 1.2320592e-05 -8.3619234e-05 -7.171534e-07
000380 da 5a 8e b8 6c 3e 25 b7 0a 71 a0 37 3f 5b 6f b6
       -6.78801e-05 -9.8493e-06 1.9126124e-05 -3.5666887e-06
000390 24 ee e6 b4 6c 13 17 37 0a 71 a0 37 3f 5b 6f b6
       -4.3014109e-07 9.004823e-06 1.9126124e-05 -3.5666887e-06
0003a0 4d df 8a b8 cc 37 29 b7 8d a9 e9 37 21 52 40 b6
       -6.621946e-05 -1.0086176e-05 2.7854718e-05 -2.8658035e-06
0003b0 26 5d 66 b6 0d 36 a6 36 8d a9 e9 37 21 52 40 b6
       -3.432689e-06 4.953478e-06 2.7854718e-05 -2.8658035e-06
0003c0 34 60 d0 37 e6 9e ff b6 6e 3e 91 37 e8 db 80 37
       2.484033e-05 -7.6180904e-06 1.7314418e-05 1.536119e-05
0003d0 f4 48 d2 36 6b 21 2f 35 6e 3e 91 37 e8 db 80 37
       6.2669806e-06 6.524121e-07 1.7314418e-05 1.536119e-05
0003e0 18 4b c2 37 c4 ae 97 b6 69 9d 95 b7 5b 5c 05 38
       2.316157e-05 -4.520496e-06 -1.7835484e-05 3.1795684e-05
0003f0 00 fa ba 36 68 24 84 35 69 9d 95 b7 5b 5c 05 38
       5.572336e-06 9.845362e-07 -1.7835484e-05 3.1795684e-05

exp_avg_sq f4 [256, 24]
000000 0b bc 9d 35 e8 ae a0 32 22 01 64 36 03 c2 08 34
       1.1752139e-06 1.870599e-08 3.3975307e-06 1.2736568e-07
000010 df 77 a3 34 9f 84 85 33 22 01 64 36 03 c2 08 34
       3.0448334e-07 6.217419e-08 3.3975307e-06 1.2736568e-07
000020 b5 b2 a0 35 8e 84 87 32 c9 d9 8f 35 4d b6 d9 33
       1.197294e-06 1.5776347e-08 1.0717714e-06 1.013801e-07
000030 8a 3c d0 34 70 3c 2c 33 c9 d9 8f 35 4d b6 d9 33
       3.8787067e-07 4.010184e-08 1.0717714e-06 1.013801e-07
000040 52 0a 79 35 f3 09 62 32 d2 7a 86 36 39 37 da 33
       9.2774746e-07 1.3157194e-08 4.0078094e-06 1.0161461e-07
000050 9a 83 ff 34 18 c6 ce 32 d2 7a 86 36 39 37 da 33
       4.7593204e-07 2.4071639e-08 4.0078094e-06 1.0161461e-07
000060 2b c4 13 34 37 37 39 31 13 b4 ac 34 09 bc 23 32
       1.3761807e-07 2.695243e-09 3.2168518e-07 9.530603e-09
000070 dc c5 4c 33 06 f5 a3 31 13 b4 ac 34 09 bc 23 32
       4.7677403e-08 4.7717803e-09 3.2168518e-07 9.530603e-09
000080 82 0e 15 34 43 82 31 31 46 91 04 34 99 88 03 32
       1.3881984e-07 2.5830935e-09 1.2346308e-07 7.656262e-09
000090 80 e0 80 33 e4 81 44 31 46 91 04 34 99 88 03 32
       6.001301e-08 2.8595588e-09 1.2346308e-07 7.656262e-09
0000a0 3d ed fc 33 45 9e 1f 31 bd 0b a2 34 57 4c 06 32
       1.1777818e-07 2.322751e-09 3.0183392e-07 7.817184e-09
0000b0 e8 fc 9b 33 c9 e3 f8 30 bd 0b a2 34 57 4c 06 32
       7.263753e-08 1.8109115e-09 3.0183392e-07 7.817184e-09
0000c0 35 ed 4f 33 7f 76 69 30 71 d6 df 33 83 d1 81 31
       4.841168e-08 8.49333e-10 1.04232534e-07 3.778213e-09
0000d0 76 42 6d 32 a2 1f 17 31 71 d6 df 33 83 d1 81 31
       1.3810327e-08 2.1991373e-09 1.04232534e-07 3.778213e-09
0000e0 ed 31 4e 33 0a 25 6e 30 06 6f bf 32 3d 40 74 31
       4.800852e-08 8.663653e-10 2.2285814e-08 3.5543188e-09
0000f0 22 5a 90 32 cc 4c e0 30 06 6f bf 32 3d 40 74 31
       1.6804794e-08 1.6319972e-09 2.2285814e-08 3.5543188e-09
000100 c4 f1 39 33 5d 43 6c 30 a5 61 da 33 39 d6 7a 31
       4.3293554e-08 8.595203e-10 1.01691775e-07 3.650156e-09
000110 81 98 ad 32 dd 8e b5 30 a5 61 da 33 39 d6 7a 31
       2.0209201e-08 1.3210087e-09 1.01691775e-07 3.650156e-09
000120 e1 86 0b 34 0d 29 41 31 c7 02 76 34 a7 a9 9f 31
       1.2994452e-07 2.810853e-09 2.2911546e-07 4.6467963e-09
000130 1c 70 19 33 fc ae 9e 31 c7 02 76 34 a7 a9 9f 31
       3.572505e-08 4.6182986e-09 2.2911546e-07 4.6467963e-09
000140 82 c4 11 34 5c 8e 35 31 30 e1 ca 33 13 0e 98 31
       1.3575666e-07 2.6419888e-09 9.4473194e-08 4.4253823e-09
000150 61 39 46 33 73 f0 34 31 30 e1 ca 33 13 0e 98 31
       4.6152653e-08 2.6330127e-09 9.4473194e-08 4.4253823e-09
000160 a1 7b 03 34 62 01 28 31 39 b8 45 34 4f 54 b4 31
       1.2245302e-07 2.4448004e-09 1.8414075e-07 5.2482743e-09
000170 8e d6 76 33 66 16 cc 30 39 b8 45 34 4f 54 b4 31
       5.7471475e-08 1.484932e-09 1.8414075e-07 5.2482743e-09
000180 4f 1c f8 31 97 15 bf 2e d0 00 7d 32 e4 29 11 30
       7.2209683e-09 8.6895095e-11 1.4726723e-08 5.2810223e-10
000190 94 30 3a 31 a2 8e 55 30 d0 00 7d 32 e4 29 11 30
       2.7094176e-09 7.769164e-10 1.4726723e-08 5.2810223e-10
0001a0 da 30 d3 31 8d 56 b7 2e 1f 6f b8 32 ab 86 1f 30
       6.146462e-09 8.337251e-11 2.1470951e-08 5.803524e-10
0001b0 57 57 52 31 07 4b 3c 30 1f 6f b8 32 ab 86 1f 30
       3.060867e-09 6.850062e-10 2.1470951e-08 5.803524e-10
0001c0 94 19 c5 31 ec 0a bb 2e 96 e1 04 33 aa 5b 36 30
       5.7363625e-09 8.5057156e-11 3.0938814e-08 6.6341477e-10
0001d0 f1 9e 6e 31 fe fb 27 30 96 e1 04 33 aa 5b 36 30
       3.4723906e-09 6.111235e-10 3.0938814e-08 6.6341477e-10
0001e0 cc 30 19 33 e8 11 bb 2f 8c 23 9d 33 a3 41 ac 31
       3.566747e-08 3.4027825e-10 7.317348e-08 5.013321e-09
0001f0 63 ed 72 32 1f 67 49 31 8c 23 9d 33 a3 41 ac 31
       1.4140229e-08 2.9307967e-09 7.317348e-08 5.013321e-09
000200 d6 4d 1c 33 3c 91 a8 2f d7 4e 0d 33 03 bc a8 31
       3.6392372e-08 3.0662217e-10 3.2900825e-08 4.910818e-09
000210 c0 b4 85 32 96 c8 2d 31 d7 4e 0d 33 03 bc a8 31
       1.5565433e-08 2.5288833e-09 3.2900825e-08 4.910818e-09
000220 68 a0 11 33 db 74 a4 2f 09 b5 6d 33 42 c5 b2 31
       3.3906332e-08 2.9914457e-10 5.5345513e-08 5.2029074e-09
000230 bb 02 94 32 a0 21 1c 31 09 b5 6d 33 42 c5 b2 31
       1.723071e-08 2.2720101e-09 5.5345513e-08 5.2029074e-09
000240 ee 45 bf 34 d3 30 d3 31 01 71 17 34 30 53 c4 32
       3.5627403e-07 6.146459e-09 1.4104081e-07 2.2855232e-08
000250 4a 37 d0 33 00 bd 98 32 01 71 17 34 30 53 c4 32
       9.695812e-08 1.7781076e-08 1.4104081e-07 2.2855232e-08
000260 6c bb c1 34 86 8c d5 31 3f c5 c5 33 a7 31 84 32
       3.608542e-07 6.2150916e-09 9.209406e-08 1.5389402e-08
000270 52 3c 02 34 e0 01 40 32 3f c5 c5 33 a7 31 84 32
       1.2129138e-07 1.1176297e-08 9.209406e-08 1.5389402e-08
000280 85 bc bb 34 3f be cf 31 05 f3 0f 34 4c e7 4d 32
       3.496863e-07 6.0461214e-09 1.3406323e-07 1.1985161e-08
000290 1b 3d 1f 34 0d 44 de 31 05 f3 0f 34 4c e7 4d 32
       1.4830259e-07 6.468787e-09 1.3406323e-07 1.1985161e-08
0002a0 ae 34 06 31 05 fd 23 2e 82 a6 91 32 0e 85 77 2f
       1.9529511e-09 3.7286636e-11 1.695594e-08 2.251179e-10
0002b0 b7 07 05 31 dc 79 1c 2f 82 a6 91 32 0e 85 77 2f
       1.9358433e-09 1.423141e-10 1.695594e-08 2.251179e-10
0002c0 8c 65 4d 31 09 b2 23 2e d8 b9 99 32 16 30 8d 2f
       2.988915e-09 3.7220036e-11 1.7896056e-08 2.5681918e-10
0002d0 9f 9a 17 31 72 f8 f4 2e d8 b9 99 32 16 30 8d 2f
       2.2061284e-09 1.1139968e-10 1.7896056e-08 2.5681918e-10
0002e0 25 09 4d 31 80 0a 36 2e ab 3f 42 31 ce 75 a0 2f
       2.9836624e-09 4.1391335e-11 2.8266907e-09 2.9187536e-10
0002f0 1d c5 2a 31 e6 72 e4 2e ab 3f 42 31 ce 75 a0 2f
       2.4850302e-09 1.038865e-10 2.8266907e-09 2.9187536e-10
000300 5d 04 60 33 bc 79 86 30 fb b1 52 32 93 e9 4e 31
       5.2158033e-08 9.784382e-10 1.2264077e-08 3.0109717e-09
000310 8f 3b 6b 32 1b 03 44 31 fb b1 52 32 93 e9 4e 31
       1.3692342e-08 2.852352e-09 1.2264077e-08 3.0109717e-09
000320 27 13 60 33 48 88 88 30 0c e1 2c 32 59 ea 55 31
       5.2171483e-08 9.934036e-10 1.0062887e-08 3.112879e-09
000330 25 2e 91 32 dd 91 06 31 0c e1 2c 32 59 ea 55 31
       1.6901206e-08 1.958248e-09 1.0062887e-08 3.112879e-09
000340 ac 43 60 33 aa ad 75 30 2c ec 03 32 0b 2f 5a 31
       5.221561e-08 8.937727e-10 7.678903e-09 3.1749916e-09
000350 6f 88 b0 32 d1 bb b3 30 2c ec 03 32 0b 2f 5a 31
       2.055114e-08 1.3077345e-09 7.678903e-09 3.1749916e-09
000360 bd bb 6d 33 04 65 5d 30 fb 91 df 33 50 75 19 32
       5.535161e-08 8.0542883e-10 1.04108004e-07 8.932446e-09
000370 08 af 50 32 ad 8d 97 31 fb 91 df 33 50 75 19 32
       1.2146991e-08 4.410785e-09 1.04108004e-07 8.932446e-09
000380 d9 53 83 33 3d 39 29 30 db f5 d0 33 98 fe 03 32
       6.115415e-08 6.156318e-10 9.7304756e-08 7.6830915e-09
000390 d5 83 84 32 82 23 5e 31 db f5 d0 33 98 fe 03 32
       1.5426773e-08 3.2325436e-09 9.7304756e-08 7.6830915e-09
0003a0 b0 3e 84 33 8e 1a 16 30 99 c3 94 32 4f a4 c0 31
       6.158132e-08 5.460742e-10 1.7318415e-08 5.606615e-09
0003b0 8e 15 a6 32 55 0a 18 31 99 c3 94 32 4f a4 c0 31
       1.9334745e-08 2.2124784e-09 1.7318415e-08 5.606615e-09
0003c0 7f 4b 1d 34 c9 95 50 31 4c 45 11 34 07 22 25 32
       1.464923e-07 3.0353127e-09 1.3529387e-07 9.612001e-09
0003d0 d5 0b 1f 33 94 2d bc 31 4c 45 11 34 07 22 25 32
       3.7030834e-08 5.4767018e-09 1.3529387e-07 9.612001e-09
0003e0 31 67 1c 34 fb 46 52 31 5a 12 ec 32 af fd f8 31
       1.4566173e-07 3.059937e-09 2.7482361e-08 7.2465904e-09
0003f0 f5 8a 4d 33 d0 b6 6a 31 5a 12 ec 32 af fd f8 31
       4.7856663e-08 3.4155399e-09 2.7482361e-08 7.2465904e-09
